best_CLAM.pth (torch, 830793 bytes, 15 tensors)

cnn.0.weight f4 [32, 10, 3]
-0.072775304 -0.13936257 0.2302999 0.18514211 0.12321812 -0.101183265 -0.13904916 0.12950596
-0.083744116 -0.04301755 -0.09887085 0.04892145 0.07460281 0.13414493 -0.329129 -0.22497755
-0.1594218 0.07438227 0.1137496 0.11054015 0.054220926 -0.11616585 -0.12019568 -0.051481646
0.22110838 0.051013578 0.0005904582 0.1563307 -0.008102499 0.022951398 -0.12226762 0.12583669
0.20062584 -0.2422969 0.052783664 0.11926863 -0.13606605 0.065967135 0.01860388 -0.1735637
0.013529267 -0.003116114 -0.07209943 0.06968353 0.12661786 -0.042717643 -0.16687453 -0.07779171
-0.05745721 0.15447491 -0.13049097 0.15629566 0.17452028 -0.08459345 -0.01704367 0.036459703
-0.11088934 -0.004155319 -0.17886649 -0.1493373 -0.12102461 -0.11868751 -0.09708841 -0.18151926
-0.18868382 0.1238502 0.08966683 -0.070505984 0.20326145 0.14061037 -0.044738233 -0.016681258
0.036755413 0.062038142 -0.28407562 -0.057544935 -0.008293172 -0.18030223 -0.021471832 0.055568025
-0.025871735 -0.012287285 -0.11354984 -0.014898997 -0.029510865 0.015715377 0.075502835 -0.14952561
0.013609672 0.15360124 -0.21488938 -0.20247313 0.10241738 -0.031688523 0.031758815 0.2115855
-0.10590496 -0.017745228 -0.03895268 -0.012314898 -0.24189813 0.28586054 -0.11374897 0.15789099
-0.19090699 0.15609355 -0.22459275 0.054509193 0.10486149 0.06765841 -0.0631981 0.07781276
0.12529135 -0.05500341 0.006787146 0.018299652 -0.14141667 0.3011254 0.08003411 -0.1862768
0.14756359 -0.1812543 0.12562922 0.14660172 -0.22300486 -0.06790419 0.13639544 -0.18629646
-0.04464893 0.020466566 -0.07896702 -0.024232185 0.06933758 -0.122364126 0.22399679 0.077220865
-0.03316465 0.13405305 0.046968423 -0.19664152 0.0015156085 -0.113958254 0.039135307 0.074128464
0.06321555 -0.033594847 0.0030317109 0.17406195 -0.060663622 0.028155778 -0.06378597 0.1974498
-0.07451472 0.18305402 -0.07362888 0.13671023 0.049595635 -0.1676734 0.1323216 -0.15202112
0.068515554 -0.07444619 -0.1774617 0.033230737 -0.07516377 0.09648715 -0.02030754 -0.20023946
-0.025735438 -0.104430124 -0.15921243 -0.09387322 -0.12597835 -0.20554721 0.121585645 0.0047916863
0.16094854 0.1728053 0.07277398 0.062134262 0.06628327 -0.072278544 0.2198399 0.052358333
-0.111129194 -0.12896653 0.083650045 0.022316335 -0.091619425 -0.079403 0.08523492 0.08222691
-0.29435378 -0.2640636 0.29042092 -0.08719657 -0.17490204 -0.0795569 0.00960697 0.028431078
0.11683064 -0.17712753 0.043095667 0.19167936 0.21306467 0.13049667 -0.029944463 -0.02755599
0.026977178 0.14390151 -0.109368235 0.18740359 0.09808029 -0.01942286 -0.15953511 -0.100141965
0.10891791 0.031371016 -0.123144515 0.09590193 0.030056762 0.007855338 0.11346309 -0.085020244
0.0377283 0.0006116316 0.116179444 -0.14894825 -0.17673016 0.056789577 -0.07799242 -0.08830876
-0.13239166 0.11856184 -0.0363919 -0.122482166 0.03742241 0.21485823 -0.17790245 -0.20469354
-0.083552435 -0.06400743 0.018572614 -0.14681028 0.18357494 0.10507511 -0.1502901 -0.16338702
0.0999019 0.029225636 -0.12796076 -0.10480275 0.006538204 0.12006004 0.19160989 -0.18520853
00000000: 380b 95bd 10b5 0ebe bdd3 6b3e e595 3d3e
00000010: c859 fc3d 2c39 cfbd e762 0ebe 369d 043e
00000020: 0982 abbd 2c33 30bd cd7c cabd dc61 483d
00000030: 5cc9 983d 4a5d 093e 9983 a8be 8460 66be
00000040: 783f 23be bb55 983d 8df5 e83d e062 e23d
00000050: c316 5e3d 5ce8 edbd 2729 f6bd 6bde 52bd
00000060: 3c6a 623e 9df3 503d fbc8 1a3a 2815 203e
00000070: 58c0 04bc 9204 bc3c 7267 fabd 55db 003e
00000080: dc70 4d3e ae1c 78be af33 583d 1d43 f43d
00000090: e654 0bbe c719 873d 2a67 983c afba 31be
000000a0: dca9 5d3c b837 4cbb dea8 93bd 3db6 8e3d
000000b0: 1da8 013e b2f8 2ebd 28e1 2abe 4351 9fbd
000000c0: 4058 6bbd ac2e 1e3e 6d9f 05be f80b 203e
000000d0: 72b5 323e 553f adbd 2b9f 8bbc c556 153d
000000e0: f319 e3bd 5829 88bb c728 37be e1eb 18be
000000f0: c0db f7bd 7012 f3bd 4ad6 c6bd 2fe0 39be
00000100: 5536 41be 2ca5 fd3d 3ea3 b73d 7165 90bd
00000110: c523 503e 2afc 0f3e 703f 37bd 22a7 88bc
00000120: d88c 163d b51b 7e3d 5c72 91be 3db4 6bbd
00000130: 16e0 07bc 26a1 38be b2e5 afbc 4c9b 633d
00000140: f6f0 d3bc 9c50 49bc d28c e8bd ec1a 74bc
00000150: c5c0 f1bc 89bd 803c 3ba1 9a3d 3e1d 19be
00000160: 1afb 5e3c a549 1d3e f60b 5cbe 1e55 4fbe
00000170: 34c0 d13d d3cb 01bd 8815 023d dfa9 583e
00000180: b3e4 d8bd 715e 91bc d88c 1fbd 6dc4 49bc
00000190: 25b4 77be 505c 923e 38f5 e8bd 2dae 213e
000001a0: 1f7d 43be fdd6 1f3e a4fb 65be 0845 5f3d
000001b0: 9fc1 d63d 7e90 8a3d 016e 81bd 4c5c 9f3d
000001c0: 604c 003e 414b 61bd b566 de3b 27e9 953c
000001d0: 88cf 10be 1c2d 9a3e ece8 a33d 58bf 3ebe
000001e0: e91a 173e ba9a 39be f2a4 003e c31e 163e
000001f0: 635b 64be 5a11 8bbd 3fab 0b3e 80c4 3ebe
00000200: cce1 36bd 80a9 a73c 76b9 a1bd 9382 c6bc
00000210: dc00 8e3d 0b9a fabd 6a5f 653e f925 9e3d
00000220: a8d7 07bd 3445 093e f661 403d 655c 49be
00000230: 62a7 c63a f262 e9bd 584c 203d aad0 973d
00000240: 2777 813d c09a 09bd abaf 463b 4c3d 323e
00000250: 6b7a 78bd f2a6 e63c 38a2 82bd 4830 4a3e
00000260: 2c9b 98bd 8372 3b3e bdca 96bd c4fd 0b3e
00000270: cb24 4b3d 93b2 2bbe 507f 073e 6dab 1bbe
00000280: e251 8c3d 3e77 98bd 85b8 35be f41c 083d
00000290: 76ef 99bd 0e9b c53d 005c a6bc 930b 4dbe
000002a0: 20d3 d2bc 76df d5bd 9508 23be 9a40 c0bd
000002b0: 7800 01be f87a 52be e501 f93d 9403 9d3b
000002c0: b2cf 243e dff3 303e 860a 953d 7f80 7e3d
000002d0: 86bf 873d c606 94bd b61d 613e b175 563d
000002e0: b497 e3bd cd0f 04be b750 ab3d bfd0 b63c
000002f0: f7a2 bbbd 0a9e a2bd a58f ae3d 9566 a83d
00000300: 8ab5 96be 5833 87be 0db2 943e 1e94 b2bd
00000310: 8519 33be baee a2bd 8d66 1d3c 4be8 e83c
00000320: e744 ef3d eb60 35be 1585 303d 9847 443e
00000330: a02d 5a3e eba0 053e 174e f5bc 19bd e1bc
00000340: 3eff dc3c eb5a 133e 74fc dfbd bae6 3f3e
00000350: 52de c83d b11c 9fbc 2c5d 23be 3b17 cdbd
00000360: 5a10 df3d e57e 003d 3133 fcbd 3b68 c43d
00000370: 9939 f63c adb3 003c 565f e83d 181f aebd
00000380: fd88 1a3d e755 203a 7def ed3d e485 18be
00000390: c0f8 34be 309c 683d 7dba 9fbd 39db b4bd
000003a0: ae91 07be 8dd0 f23d ac0f 15bd eed7 fabd
000003b0: 3e48 193d cc03 5c3e 0f2c 36be 2f9b 51be
000003c0: 8a1d abbd 5416 83bd 9825 983c 6f55 16be
000003d0: 12fb 3b3e 9f31 d73d a6e5 19be ed4e 27be
000003e0: 5e99 cc3d 9a6a ef3c 2508 03be d3a2 d6bd
000003f0: 6e3e d63b 0ae2 f53d 6235 443e 4ea7 3dbe

cnn.0.bias f4 [32]
-0.112334736 0.057959165 0.056229185 -0.10475702 -0.0119292615 0.032664362 -0.24317946 -0.10506069
-0.047924045 0.05961943 -0.22767648 0.029744433 -0.013008295 -0.17706297 -0.1288792 0.14448193
-0.19071569 0.04744392 0.021839567 -0.14712864 -0.13163324 0.0019739184 -0.09033137 0.019603895
-0.16459832 0.030286504 -0.19667289 -0.10742953 -0.10894412 0.058019686 -0.2387126 -0.23252721
00000000: c10f e6bd 9766 6d3d 9350 663d d98a d6bd
00000010: f372 43bc 11cb 053d 0904 79be 0f2a d7bd
00000020: 014c 44bd 8133 743d 0624 69be 99aa f33c
00000030: be20 55bc ff4f 35be e9f8 03be 12f3 133e
00000040: f94a 43be 8e54 423d e4e8 b23c e4a8 16be
00000050: ddca 06be db5c 013b a7ff b8bd 5998 a03c
00000060: 768c 28be 671b f83c 9e64 49be 0304 dcbd
00000070: 181e dfbd 0da6 6d3d 1371 74be 9d1b 6ebe

cnn.3.weight f4 [64, 32, 3]
0.07241862 -0.002440379 -0.13243225 0.078352 -0.033244826 -0.06613393 -0.13314253 -0.086986415
0.048875965 0.20006482 -0.04165958 0.084448725 -0.069642484 -0.14730164 -0.0010568656 0.043655943
-0.03866433 0.058561504 0.030011427 -0.06811392 0.09101257 0.12644765 0.15216035 -0.029432328
0.09480721 -0.09945166 0.13276546 0.029395524 0.14468652 0.08434051 0.011507269 -0.089730434
-0.155183 0.05706859 0.046271186 -0.040129196 -0.16586153 0.0004794577 0.08699415 0.053727344
-0.06933448 -0.087620385 -0.092451535 -0.021068398 -0.10646315 0.026493903 0.036345754 -0.050111987
-0.04577333 0.122647814 -0.060340416 0.10529075 0.04623917 -0.015784482 -0.07887132 -0.086674996
-0.059719387 -0.11104332 -0.052255664 0.0103201885 -0.013014626 0.02098789 0.05186518 0.13521522
0.0061119916 -0.14009857 0.15700729 -0.015675021 0.033581097 -0.11336923 -0.1885696 -0.1422615
0.09205443 0.110282585 0.053715855 -0.07250012 -0.082781136 0.13839842 -0.28826118 -0.022895869
0.056705706 -0.006555762 0.10352958 -0.04191036 -0.18337849 -0.064318456 -0.023166118 -0.14014438
0.15582338 -0.06611191 -0.08154262 -0.15101288 -0.08552816 -0.14608456 0.08711747 0.14140978
-0.14942472 -0.07368047 0.14340046 -0.027730998 0.046154607 0.089427106 0.03726052 0.05077992
0.0056155776 0.08087159 -0.009448348 0.08153202 0.053785194 -0.065804735 0.041446917 0.12095622
0.16475396 -0.18473594 0.022054875 0.047149982 0.14403678 -0.14603713 0.12042744 0.013801452
-0.022272239 -0.19080827 0.10544307 -0.059878714 0.06809411 -0.19904792 -0.037321493 -0.27998865
-0.07093251 -0.25537083 0.04464963 0.022933967 -0.0033763656 0.16931635 -0.08598362 0.04865644
0.049784962 -0.09809085 -0.04799091 -0.05377739 -0.04289542 -0.067110494 0.01852758 -0.09884999
-0.014909831 -0.08994749 0.06168995 0.09838407 0.14776842 0.019167133 0.019154811 -0.19945627
0.07783317 -0.18222761 -0.023761481 -0.10161239 -0.027215667 0.03518422 0.013474673 -0.15191041
0.0077729872 -0.022745846 -0.20797326 -0.16510671 0.07315515 -0.05705654 -0.1445032 -0.0136538595
-0.2191532 -0.13255295 0.049910184 0.08776454 0.07837805 -0.06317504 -0.09095753 -0.20204973
-0.051976133 -0.02821269 0.08839597 0.034257058 0.058142215 -0.19568841 -0.06291259 0.029689278
-0.004869534 0.030382028 -0.05829457 -0.110815294 0.1204952 -0.13752532 0.03825214 -0.027361687
-0.08677522 0.09591672 0.07299924 0.039360054 -0.03924357 -0.055159487 0.08347705 0.11777341
0.14995083 -0.032579444 -0.045997437 -0.009013922 -0.06737535 -0.03589209 0.036053922 -0.061544895
-0.022102376 -0.056809325 -0.2949698 -0.191092 0.08221413 0.08514369 -0.039632507 -0.0018216976
-0.18819721 -0.006871966 0.15902688 0.06958221 -0.053440664 -0.08191755 -0.30066127 -0.09277277
-0.1367565 0.04442477 -0.010825397 0.03673392 -0.069590926 -0.025563577 0.08355071 -0.06336332
-0.1001385 -0.06762125 -0.1207143 -0.1421914 0.046674605 -0.12540075 0.05501725 -0.088559054
-0.10798997 -0.02210152 -0.05822329 -0.17124769 0.015523987 0.101618566 -0.109839685 0.09993194
-0.06695448 0.048319954 0.05321318 0.13886593 -0.071721636 0.05216662 -0.0043802443 -0.16148233
00000000: 3750 943d c4ee 1fbb 529c 07be 0377 a03d
00000010: ba2b 08bd 3a71 87bd 8456 08be ef25 b2bd
00000020: 2a32 483d cbdd 4c3e 3ca3 2abd 74f3 ac3d
00000030: b8a0 8ebd 3ed6 16be 8686 8aba 93d0 323d
00000040: 7d5e 1ebd 30de 6f3d 86da f53c 507f 8bbd
00000050: cc64 ba3d 7e7b 013e eccf 1b3e 111c f1bc
00000060: 482a c23d 50ad cbbd abf3 073e e2ce f03c
00000070: b428 143e b8ba ac3d fc88 3c3c 97c4 b7bd
00000080: 4be8 1ebe c1c0 693d db86 3d3d 835e 24bd
00000090: 9bd7 29be b95f fb39 fd29 b23d 3411 5c3d
000000a0: 3cff 8dbd 5172 b3bd 3b57 bdbd a297 acbc
000000b0: 5a09 dabd be09 d93c 49df 143d 3a42 4dbd
000000c0: d17c 3bbd c72e fb3d 8327 77bd ada2 d73d
000000d0: 4965 3d3d 754e 81bc 4987 a1bd a982 b1bd
000000e0: 519c 74bd ae6a e3bd 090a 56bd 0216 293c
000000f0: 4c3b 55bc ccee ab3c 9570 543d dc75 0a3e
00000100: 1a47 c83b 0076 0fbe 85c6 203e e768 80bc
00000110: 558c 093d 202e e8bd 6418 41be 00ad 11be
00000120: 0887 bc3d d6db e13d 2805 5c3d f17a 94bd
00000130: 2889 a9bd 51b8 0d3e f896 93be 1e90 bbbc
00000140: 3e44 683d b8d1 d6bb 5107 d43d 33aa 2bbd
00000150: 92c7 3bbe 65b9 83bd dfc6 bdbc 0282 0fbe
00000160: 2a90 1f3e ae65 87bd d1ff a6bd 1fa3 1abe
00000170: 6329 afbd 3197 15be a56a b23d bacd 103e
00000180: cb02 19be c9e5 96bd 92d7 123e 1e2c e3bc
00000190: 9d0c 3d3d 8f25 b73d 7d9e 183d 9bfe 4f3d
000001a0: e102 b83b 01a0 a53d 3ecd 1abc 42fa a63d
000001b0: dd4d 5c3d a2c4 86bd 3ec4 293d e5b7 f73d
000001c0: 43b5 283e 6b2b 3dbe 6dac b43c 5720 413d
000001d0: 617e 133e c28a 15be a9a2 f63d 7c1f 623c
000001e0: 4574 b6bc 3e63 43be 89f2 d73d 6243 75bd
000001f0: ed74 8b3d 38d3 4bbe 6cde 18bd ac5a 8fbe
00000200: 1045 91bd f7bf 82be 88e2 363d 04e0 bb3c
00000210: 0446 5dbb 4461 2d3e 2e18 b0bd fa4b 473d
00000220: 51eb 4b3d dbe3 c8bd 1e92 44bd ae45 5cbd
00000230: 1cb3 2fbd 3a71 89bd 27c7 973c dd71 cabd
00000240: 5d48 74bc 6436 b8bd 9aae 7c3d 967d c93d
00000250: 9b50 173e 6404 9d3c 8dea 9c3c 443e 4cbe
00000260: ff66 9f3d e099 3abe 70a7 c2bc 281a d0bd
00000270: 64f3 debc 541d 103d e0c4 5c3c 678e 1bbe
00000280: 8bb4 fe3b 7f55 babc f1f6 54be bc11 29be
00000290: 5ed2 953d 1eb4 69bd a6f8 13be 70b4 5fbc
000002a0: b269 60be f6bb 07be 9f6e 4c3d e5bd b33d
000002b0: ac84 a03d ea61 81bd f147 babd 20e6 4ebe
000002c0: ede4 54bd 4d1e e7bc f208 b53d 2151 0c3d
000002d0: 8826 6e3d 8b62 48be 51d8 80bd ee36 f33c
000002e0: 9d90 9fbb bbe3 f83c 49c6 6ebd 21f3 e2bd
000002f0: 30c6 f63d 70d3 0cbe 47ae 1c3d 9e25 e0bc
00000300: 35b7 b1bd fc6f c43d a080 953d 0238 213d
00000310: debd 20bd eaee 61bd 04f6 aa3d 3033 f13d
00000320: b68c 193e 0672 05bd cf67 3cbd 21af 13bc
00000330: 16fc 89bd 9603 13bd 47ad 133d 8016 7cbd
00000340: 0b10 b5bc e5b0 68bd 4806 97be 9fad 43be
00000350: e25f a83d d15f ae3d b255 22bd 07c6 eeba
00000360: c5b6 40be 3b2e e1bb f1d7 223e 1e81 8e3d
00000370: 99e4 5abd 63c4 a7bd 46f0 99be a6ff bdbd
00000380: e509 0cbe bff6 353d 025d 31bc 4f76 163d
00000390: b085 8ebd b56a d1bc a21c ab3d a1c4 81bd
000003a0: 6a15 cdbd 037d 8abd 0f39 f7bd 9f9a 11be
000003b0: df2d 3f3d 0e69 00be c559 613d 735e b5bd
000003c0: d829 ddbd 3f0e b5bc 8b7b 6ebd 8e5b 2fbe
000003d0: 5258 7e3c 651d d03d a1f3 e0bd 1ea9 cc3d
000003e0: 6e1f 89bd 25eb 453d 10f6 593d df32 0e3e
000003f0: cbe2 92bd aaac 553d 2788 8fbb a05b 25be

cnn.3.bias f4 [64]
-0.10208581 -0.08889269 0.04335115 -0.0890301 0.05411344 -0.1195223 0.0012863283 0.06534434
-0.15169318 -0.046417665 -0.08488498 -0.028614618 -0.07881858 -0.033516068 0.031197624 -0.09724969
-0.069080085 0.02979632 0.05377235 0.040916853 -0.054507613 -0.029479139 -0.044218186 -0.042474553
-0.07639297 0.10173366 -0.084991135 0.049179323 0.0972257 -0.0085303765 -0.1158659 0.12687084
-0.0016312451 -0.028462656 -0.0034722127 -0.017372558 -0.079771414 0.04390056 -0.058649737 0.034766037
0.015812103 -0.008383703 -0.06057041 0.036661815 -0.011084152 -0.09668476 -0.08972923 -0.10355859
0.08233513 -0.07674996 -0.123457745 0.023182107 -0.120039456 -0.09799822 0.009481164 -0.049049616
-0.016184606 -0.102381274 0.07194565 -0.008437208 -0.040580537 0.082160264 0.014568908 -0.031699065
00000000: 5d12 d1bd 5f0d b6bd fa90 313d 6a55 b6bd
00000010: 0ea6 5d3d 1cc8 f4bd 049a a83a 41d3 853d
00000020: 7555 1bbe 7320 3ebd 2dd8 adbd 3469 eabc
00000030: a36b a1bd 2548 09bd 2992 ff3c d82a c7bd
00000040: dc79 8dbd 6917 f43c 6540 5c3d 6e98 273d
00000050: 6043 5fbd 3c7e f1bc 211e 35bd ccf9 2dbd
00000060: eb73 9cbd bd59 d03d d50f aebd 4270 493d
00000070: 451e c73d fec2 0bbc 1a4b edbd 6eea 013e
00000080: 81cf d5ba 842a e9bc 108e 63bb e550 8ebc
00000090: 325f a3bd 13d1 333d b53a 70bd d566 0e3d
000000a0: 6288 813c cd5b 09bc ae18 78bd b32a 163d
000000b0: 4e9a 35bc a902 c6bd f5c3 b7bd 8716 d4bd
000000c0: 529f a83d 152f 9dbd 6ad7 fcbd 67e8 bd3c
000000d0: 3fd7 f5bd 4ab3 c8bd e256 1b3c 40e8 48bd
000000e0: 9495 84bc 46ad d1bd 3e58 933d 373c 0abc
000000f0: c737 26bd a443 a83d 6eb2 6e3c e1d6 01bd

lstm.weight_ih_l0 f4 [512, 64]
0.018775906 0.06878066 -0.106908284 0.35883546 0.07488218 -0.03916757 -0.087986894 -0.14526904
0.29278693 -0.039051745 0.14502327 -0.026765311 -0.08003047 -0.11982351 -0.07306408 -0.0022903802
0.11537249 0.1624814 0.10058951 -0.084754914 -0.09515861 -0.0122481 0.047409564 -0.08301302
0.002088061 0.12227178 0.22924706 0.061879177 -0.055995658 -0.0413 0.055420794 -0.015881889
0.21490912 -0.17605308 0.06845903 0.09384473 -0.093492694 0.07332619 0.21955457 0.102383256
0.056909468 0.0053601507 0.066072226 0.106366634 -0.07271401 0.30992538 0.20071033 -0.01111003
-0.038828332 0.05548511 0.10460987 0.022234377 0.13369715 -0.1658926 0.17016089 0.15126333
0.0023125594 0.08062989 0.09762888 0.0050511123 0.1325303 0.12788312 -0.01782585 0.024126064
0.11639623 0.21945225 -0.005233086 0.14638452 0.100775465 0.06382495 0.024613474 0.33316424
-0.066398844 0.3274735 0.044493183 0.13341929 0.08266345 0.08096071 0.081541345 0.13736513
0.32948256 -0.0011419824 0.1141221 0.047208536 0.04530023 0.1781609 0.09759961 0.107798144
-0.24180199 -0.071454406 0.19022936 -0.017007437 0.27291405 0.016244458 0.0822686 0.16595837
-0.0039823223 0.35284367 0.15363821 0.023687365 0.1442054 -0.05255381 -0.18198591 -0.09458279
0.12393775 0.016347585 0.115142524 0.010601037 0.20580286 -0.074659504 0.04097151 -0.09031999
0.064696796 0.08827361 0.09194032 -0.07419912 0.02468379 0.20498116 -0.17007647 0.09855641
-0.21981905 -0.13596322 -0.09325983 0.11056903 0.08197547 -0.15273108 0.076630354 0.15155381
0.15159358 0.3144888 0.030202828 0.120456494 0.122683324 0.25174922 0.13254921 0.399976
-0.114435725 0.18704925 0.19541872 0.11012528 0.18682742 -0.03089428 -0.028592408 0.28970695
0.31339273 0.090191275 0.23626235 -0.07778206 0.22697954 0.10414064 0.006631608 -0.020603603
0.3066452 -0.1911677 -0.0010326375 -0.030778853 0.24691738 -0.019916672 0.07819796 0.17404932
-0.033118088 0.15318498 0.053111553 0.0023082017 -0.01925683 0.08971071 -0.005524077 -0.01791655
0.07811443 0.08947093 0.103206925 0.16368438 0.033934496 -0.0065973527 -0.08423304 -0.06323296
0.10034479 0.024991445 0.0831207 0.050163478 0.1373671 0.32600045 -0.15229331 0.041559238
-0.10292117 0.13594292 -0.036805063 0.107874 0.3748507 0.10355732 0.11459239 0.16459136
0.07024474 0.07761687 -0.040189005 -0.011375705 0.086394206 0.06198647 -0.007417869 0.09359848
-0.19273145 0.022889212 -0.10686504 -0.088487834 0.06349423 0.020587845 -0.04316321 0.04178224
0.14040297 0.026278554 -0.0750492 0.11723544 0.057026792 0.010164445 0.12939213 -0.033336844
-0.08388225 0.039220944 0.0423843 0.101872556 0.051016062 0.07417024 0.0333693 -0.042334344
0.026801543 0.09696571 0.096847534 0.09587452 0.0016683992 -0.18838993 -0.009531873 -0.039168417
0.036102533 -0.045032572 0.094573446 -0.013076255 0.004119729 0.0005922514 -0.012033598 -0.0604657
0.05326746 0.03643112 0.024456142 0.061688647 0.056353282 0.026356665 -0.10510739 0.12733972
-0.09724135 0.07172706 -0.12372519 0.024274865 0.16511695 0.03971122 -0.11034005 -0.18938528
00000000: eecf 993c e0dc 8c3d bbf2 dabd 48b9 b73e
00000010: d45b 993d 2d6e 20bd 7932 b4bd 68c1 14be
00000020: 2be8 953e b9f4 1fbd fb80 143e ed42 dbbc
00000030: 04e7 a3bd 0766 f5bd 9fa2 95bd 341a 16bb
00000040: 6948 ec3d 8661 263e df01 ce3d fc93 adbd
00000050: 84e2 c2bd 41ac 48bc 8830 423d bb02 aabd
00000060: dad7 083b a169 fa3d bebf 6a3e 0575 7d3d
00000070: b45b 65bd 302a 29bd ea00 633d bc1a 82bc
00000080: 2311 5c3e 4247 34be 3f34 8c3d aa31 c03d
00000090: 1979 bfbd 0b2c 963d ead2 603e 50ae d13d
000000a0: e719 693d 34a4 af3b e050 873d c0d6 d93d
000000b0: 15eb 94bd 8aae 9e3e 0287 4d3e d806 36bc
000000c0: 750a 1fbd 5b44 633d b33d d63d de24 b63c
000000d0: e8e7 083e c0df 29be a83e 2e3e c6e4 1a3e
000000e0: 4f8e 173b 4921 a53d a6f1 c73d cd83 a53b
000000f0: 06b6 073e cbf3 023e 8407 92bc 06a4 c53c
00000100: 2661 ee3d 17b8 603e 4f7a abbb d3e5 153e
00000110: 5e63 ce3d a8b6 823d 32a2 c93c 8194 aa3e
00000120: 1efc 87bd 9baa a73e 7c3e 363d 119f 083e
00000130: 744b a93d bbce a53d 26ff a63d 72a9 0c3e
00000140: f0b1 a83e 92ae 95ba d9b8 e93d bd5d 413d
00000150: bc8c 393d d06f 363e 4ee2 c73d 46c5 dc3d
00000160: f19a 77be b056 92bd 7ccb 423e 2e53 8bbc
00000170: 64bb 8b3e 1913 853c 717c a83d fef0 293e
00000180: 247e 82bb eda7 b43e 5653 1d3e 010c c23c
00000190: 95aa 133e aa42 57bd 845a 3abe 9fb4 c1bd
000001a0: 13d3 fd3d 5feb 853c d8cf eb3d f9af 2d3c
000001b0: fcbd 523e 15e7 98bd bed1 273d b0f9 b8bd
000001c0: c17f 843d cbc8 b43d 354b bc3d b5f5 97bd
000001d0: a935 ca3c 95e6 513e 8728 2ebe f1d7 c93d
000001e0: 3f18 61be f139 0bbe 02ff bebd 0472 e23d
000001f0: c1e2 a73d 8965 1cbe 60f0 9c3d ec30 1b3e
00000200: 593b 1b3e ad04 a13e ec6b f73c e5b1 f63d
00000210: 6541 fb3d 46e5 803e fbba 073e a7c9 cc3e
00000220: 475d eabd d789 3f3e d81b 483e 5d89 e13d
00000230: b04f 3f3e 0016 fdbc a03a eabc 7854 943e
00000240: 0375 a03e 34b6 b83d c2ee 713e 334c 9fbd
00000250: 536d 683e b047 d53d f64d d93b e3c8 a8bc
00000260: 9a00 9d3e 77c1 43be 9159 87ba ef23 fcbc
00000270: e9d7 7c3e 4a28 a3bc 4126 a03d fc39 323e
00000280: d5a6 07bd 86dc 1c3e 808b 593d 3345 173b
00000290: 80c0 9dbc 40ba b73d 5103 b5bb bbc5 92bc
000002a0: 75fa 9f3d 893c b73d 275e d33d e19c 273e
000002b0: e6fe 0a3d 9b2e d8bb 5f82 acbd 4880 81bd
000002c0: 9281 cd3d dcba cc3c 303b aa3d 3878 4d3d
000002d0: f6a9 0c3e 88e9 a63e c7f2 1bbe 053a 2a3d
000002e0: 56c8 d2bd 9f34 0b3e e8c0 16bd 0bed dc3d
000002f0: 6eec bf3e dc15 d43d 6aaf ea3d a38a 283e
00000300: 79dc 8f3d 98f5 9e3d 3a9d 24bd 2a61 3abc
00000310: 72ef b03d 86e5 7d3d 9811 f3bb 8fb0 bf3d
00000320: 655b 45be 2882 bb3c 0fdc dabd 1c39 b5bd
00000330: 4309 823d d7a7 a83c e8cb 30bd db23 2b3d
00000340: ccc5 0f3e 1f46 d73c 65b3 99bd 2219 f03d
00000350: ed94 693d c688 263c 5f7f 043e 378c 08bd
00000360: 75ca abbd 24a6 203d 299b 2d3d 8fa2 d03d
00000370: 38f6 503d 91e6 973d 3fae 083d c766 2dbd
00000380: e98e db3c f595 c63d 0058 c63d dc59 c43d
00000390: 30ae da3a 4ae9 40be 932b 1cbc 106f 20bd
000003a0: 40e0 133d 1374 38bd b9af c13d ca3d 56bc
000003b0: cbfe 863b 5241 1b3a 9128 45bc e2aa 77bd
000003c0: fb2e 5a3d cc38 153d 3f58 c83c 3cad 7c3d
000003d0: b3d2 663d efe9 d73c 8b42 d7bd 5865 023e
000003e0: 7926 c7bd a3e5 923d a263 fdbd 15dc c63c
000003f0: 6b14 293e 3ba8 223d f7f9 e1bd 37ee 41be

lstm.weight_hh_l0 f4 [512, 128]
-0.017251832 -0.021630922 0.00435266 0.00043519953 0.106155045 0.0029004526 -0.049343415 -0.061596576
-0.06465378 0.056942888 -0.08142393 0.06554269 -0.07151238 -0.045107353 -0.021237312 -0.0475724
0.08634139 0.18201074 -0.049524453 -0.04127845 -0.0068269493 0.009725416 -0.042564835 -0.06227926
-0.01677931 -0.052217443 0.06914812 -0.054066584 -0.024155732 0.02125777 -0.095179826 0.030202398
0.01829573 -0.09058491 -0.025486343 0.08545012 -0.05147928 -0.033489324 0.03287178 0.10068613
-0.013879763 0.054226942 0.0016388362 0.08468395 0.051945493 -0.08329449 -0.1649677 0.0055566533
-0.0503364 -0.027758729 0.08136309 -0.103168815 -0.06871373 0.02135899 -0.05202741 0.101842046
0.06238721 0.15852915 0.029432962 0.03747117 -0.11109592 0.16055131 -0.07346724 -0.046642836
0.10494674 -0.10010809 -0.022065872 -0.04938631 0.005039025 0.024998521 -0.04900073 -0.06893654
-0.02238561 0.06000625 0.02660774 0.018810064 -0.013448142 0.09621936 0.01691969 -0.03389771
-0.076964214 0.086485736 0.027877279 -0.068276726 -0.15370013 -0.028946355 -0.02445131 -0.05583443
0.0011026233 -0.013637722 0.027630545 0.07491574 -0.034442905 0.06306347 -0.016590592 0.09304663
-0.015974686 -0.0628269 -0.036361303 0.011052125 0.036331266 0.085038394 -0.0063913288 0.030343272
0.03988513 0.101012535 0.02234136 -0.08405094 -0.047636416 0.069261394 0.052258626 0.12757505
-0.069638565 0.015117122 0.03911376 -0.0041075405 0.11229027 0.014323358 -0.08132217 -0.10970661
0.03195988 -0.0032953473 -0.12313046 -0.030122017 -0.034769922 -0.034632515 -0.037083987 0.13584359
-0.11655649 -0.15544792 -0.11329368 0.018339526 -0.17662972 -0.07209214 0.013575635 -0.026138559
0.03592042 -0.13510576 -0.11438087 -0.15443309 0.05511457 -0.18276598 -0.054583374 0.08753047
0.099984065 0.081748 -0.0878059 0.06761968 -0.011223267 -0.062053252 0.06810771 -0.092710495
0.021375136 -0.039924398 -0.10805076 0.00963385 -0.039996292 -0.0070421332 -0.14643177 -0.003473879
-0.088844135 0.038052134 -0.00032953243 0.2926729 0.10302877 -0.0072287763 0.09381756 -0.046239134
-0.092831105 0.035290394 -0.001617027 0.098454915 0.0690171 -0.119140804 -0.15473525 -0.06683374
0.1322394 0.1146251 -0.068143524 -0.14125368 -0.045042448 0.12869005 -0.036852114 -0.19357519
0.0011301899 0.014284983 -0.10668667 0.06617604 -0.16154887 0.088396214 -0.081528835 -0.046253543
-0.10045978 -0.100006744 -6.426955e-05 -0.10852126 0.1172846 -0.014115661 0.0148837445 0.006636201
-0.06731782 0.0048517133 0.11486214 -0.02719814 -0.036169153 0.100390956 0.011068889 0.021245314
-0.21457583 -0.019843815 -0.19859293 0.1604972 0.020803157 0.049703028 -0.15786491 -0.09525395
-0.0030337244 -0.21134754 0.081131205 -0.07380702 -0.1504324 -0.05772393 0.0077908775 0.0027482854
0.02457171 -0.28967223 0.15640134 0.018520085 0.023434466 -0.073740214 -0.08454568 -0.026578527
0.0032854618 0.21423513 -0.028064778 -0.11419429 0.15759543 0.04186095 -0.030616185 0.041603893
0.040911146 0.070936024 -0.0062303245 0.011007372 0.052652657 0.0071508666 0.031824462 -0.07678636
0.027533527 0.033666555 0.04132523 0.09358622 0.1495949 -0.07742844 -0.11392133 0.14241882
00000000: b753 8dbc 5533 b1bc c2a0 8e3b 7e2b e439
00000010: d167 d93d 8515 3e3b 521c 4abd b14c 7cbd
00000020: 3369 84bd f23c 693d 97c1 a6bd 3f3b 863d
00000030: 1575 92bd 7dc2 38bd dff9 adbc 47db 42bd
00000040: c1d3 b03d 0661 3a3e 27da 4abd 9813 29bd
00000050: 9ab4 dfbb 5a57 1f3c 7758 2ebd 8a18 7fbd
00000060: c374 89bc f5e1 55bd 889d 8d3d ec74 5dbd
00000070: 3ee2 c5bc c624 ae3c a4ed c2bd 056b f73c
00000080: ede0 953c 9584 b9bd bcc8 d0bc 7900 af3d
00000090: f0db 52bd 1a2c 09bd 8fa4 063d 8834 ce3d
000000a0: f267 63bc 121d 5e3d 38ce d63a c76e ad3d
000000b0: ccc4 543d 4d96 aabd 4bed 28be 9614 b63b
000000c0: 8a2d 4ebd 4666 e3bc b1a1 a63d 2c4a d3bd
000000d0: c9b9 8cbd 0cf9 ae3c b21a 55bd 9092 d03d
000000e0: bb89 7f3d 7755 223e 651d f13c 5f7b 193d
000000f0: 4286 e3bd 9067 243e fe75 96bd 8f0c 3fbd
00000100: 51ee d63d 7805 cdbd 7dc3 b4bc 4d49 4abd
00000110: 681e a53b b3c9 cc3c fdb4 48bd 9a2e 8dbd
00000120: 0762 b7bc 1dc9 753d 7af8 d93c 9017 9a3c
00000130: 9955 5cbc a80e c53d 299b 8a3c 53d8 0abd
00000140: 6a9f 9dbd 6f1f b13d e45e e43c abd4 8bbd
00000150: 9163 1dbe e820 edbc 1d4e c8bc a5b2 64bd
00000160: e685 903a c070 5fbc 7459 e23c 6c6d 993d
00000170: 0114 0dbd 6c27 813d fee8 87bc 3b8f be3d
00000180: 58dd 82bc 64ab 80bd 97ef 14bd f913 353c
00000190: 18d0 143d 9c28 ae3d 5a6e d1bb 7492 f83c
000001a0: 975e 233d a9df ce3d 3a05 b73c e622 acbd
000001b0: 671e 43bd ebd8 8d3d 240d 563d 09a3 023e
000001c0: aa9e 8ebd cead 773c c035 203d 8c98 86bb
000001d0: 71f8 e53d 85ac 6a3c 3d8c a6bd dcad e0bd
000001e0: 5de8 023d c1f6 57bb d32b fcbd 73c2 f6bc
000001f0: e86a 0ebd d3da 0dbd 61e5 17bd 951a 0b3e
00000200: 2bb5 eebd bd2d 1fbe 8406 e8bd c63c 963c
00000210: 6cde 34be 0ba5 93bd 576c 5e3c 8820 d6bc
00000220: 4a21 133d 2a59 0abe 8440 eabd b523 1ebe
00000230: d1bf 613d 0127 3bbe d192 5fbd 2d43 b33d
00000240: 72c4 cc3d 7f6b a73d 94d3 b3bd 307c 8a3d
00000250: cbe1 37bc 8d2b 7ebd 0e7c 8b3d 00df bdbd
00000260: e91a af3c c487 23bd b849 ddbd 4cd7 1d3c
00000270: 27d3 23bd b2c1 e6bb 36f2 15be 05aa 63bb
00000280: eaf3 b5bd 8edc 1b3d 18c5 acb9 39d9 953e
00000290: bf00 d33d 5fdf ecbb 6c23 c03d 3f65 3dbd
000002a0: 3c1e bebd a98c 103d 6cf2 d3ba bba2 c93d
000002b0: d658 8d3d 1800 f4bd eb72 1ebe 21e0 88bd
000002c0: c469 073e 90c0 ea3d d58e 8bbd cea4 10be
000002d0: 6e7e 38bd 53c7 033e 3ef2 16bd 9338 46be
000002e0: e122 943a 900b 6a3c 8a7e dabd 4e87 873d
000002f0: 116d 25be 1309 b53d 97f8 a6bd 5b74 3dbd
00000300: dbbd cdbd 56d0 ccbd 74c8 86b8 6540 debd
00000310: e932 f03d 6045 67bc f3da 733c 7d74 d93b
00000320: eddd 89bd 1ffb 9e3b d73c eb3d a2ce debc
00000330: 1b26 14bd c699 cd3d 495a 353c a70a ae3c
00000340: c4b9 5bbe 7f8f a2bc f25b 4bbe 6159 243e
00000350: 626b aa3c 6795 4b3d 57a7 21be 8114 c3bd
00000360: 73d1 46bb 7d6b 58be 1e28 a63d 2328 97bd
00000370: f30a 1abe ed6f 6cbd 9e4a ff3b 941c 343b
00000380: 9c4a c93c eb4f 94be ac27 203e 6fb7 973c
00000390: a3f9 bf3c 1c05 97bd 4926 adbd 36bb d9bc
000003a0: e750 573b 7460 5b3e 1be8 e5bc b2de e9bd
000003b0: b260 213e 6376 2b3d cbce fabc d868 2a3d
000003c0: 7292 273d e846 913d c027 ccbb 4458 343c
000003d0: 50aa 573d d151 ea3b 5e5a 023d 2b42 9dbd
000003e0: fe8d e13c f1e5 093d a544 293d 22aa bf3d
000003f0: 682f 193e cd92 9ebd 964f e9bd 3dd6 113e

lstm.bias_ih_l0 f4 [512]
-0.024035329 0.015878525 0.042398024 0.054301977 -0.034658793 -0.07158955 -0.08468362 0.116120815
-0.08321356 -0.038142577 -0.062166493 -0.00014346761 0.16099483 -0.055433024 -0.07512078 -0.06450512
-0.03694086 -0.14176334 -0.004812003 -0.1774013 0.045563616 -0.031946655 -0.21234435 -0.04556549
0.068707846 -0.10674741 -0.016087126 -0.012721571 0.015133742 -0.020736696 -0.039768223 -0.00064311957
-0.057578 -0.0036343355 -0.08629245 0.10656784 0.08127499 -0.14891672 -0.13003495 -0.012321282
0.09977632 -0.056222178 -0.06861847 -0.037913393 -0.0414076 -0.0617585 -0.12612179 -0.18428466
0.120298184 -0.07276879 0.042180356 0.13969725 0.061451893 0.034215223 -0.060976718 -0.11007796
-0.15645334 -0.017908394 0.02047898 -0.044502433 -0.053941067 -0.019526044 -0.027368471 0.07179179
-0.060732584 -0.13448203 -0.048539694 0.11729614 -0.13060974 -0.117971264 0.08563423 0.016405484
-0.15959108 0.061375678 -0.0143246725 -0.04039248 0.04472429 -0.030862596 0.0137055265 -0.00892674
0.10255954 0.14581054 -0.015883207 -0.065432705 -0.1170538 -0.074410476 0.05251546 -0.015926585
0.13141027 0.059396476 0.072889134 -0.02335629 0.051724445 -0.0071106353 -0.020283256 0.047948364
0.02398578 0.0002739299 0.09955677 -0.10494774 -0.04160001 0.068332575 -0.013040978 -0.03655932
0.02156659 -0.14257225 -0.023408392 0.008052052 -0.0745465 0.05785858 0.02843419 -0.08729065
0.08298491 -0.0019123806 -0.121588744 -0.059441954 -0.07984804 0.0007169598 -0.06499053 -0.12857588
0.005786797 -0.09993856 -0.13979982 0.15709385 0.0077650887 0.007938856 0.09009382 0.07789804
-0.09146982 0.07318524 0.06619298 0.00030806963 -0.12703621 -0.04983878 0.05234028 0.053160455
0.055830695 -0.061477643 0.045311026 -0.019516436 0.036878273 -0.018004172 -0.054411795 -0.07012368
0.015281487 -0.14331368 0.004379214 -0.120588735 0.12934215 -0.029088382 -0.033433735 -0.16051479
0.051401928 0.009964643 0.056428824 0.10847245 0.004411386 0.104646355 -0.040264238 -0.031140158
0.024406964 0.022947827 -0.023910964 0.039036516 -0.034442827 -0.028559705 -0.012730472 -0.06615493
0.089379 0.029019082 -0.0832384 0.0028241405 -0.035241228 0.021528829 0.059213094 0.0024501742
0.10426836 -0.04367355 -0.061795488 0.052855805 -0.019440645 -0.024913095 -0.06457908 -0.11158933
-0.09078326 -0.008439447 0.014648918 0.04881321 -0.08388697 0.030468656 0.030880308 0.10489768
-0.024295373 -0.06507312 -0.053631335 0.026448661 -0.10415307 -0.10348515 0.059248 -0.10776289
-0.021714782 0.06898855 -0.056270797 0.010226325 0.061409894 -0.03805265 -0.041314594 0.085063346
0.0088542625 0.023919495 0.115096524 0.074671745 -0.041220326 -0.15492745 -0.08218255 0.032655302
0.056830596 0.12929887 -0.030908998 -0.041080736 0.038761087 0.06569649 -0.018567367 -0.04019342
0.02721091 -0.12071936 0.08238971 -0.17670996 -0.055452645 0.08709852 0.069496594 0.011293704
0.018555144 -0.12695235 -0.068927936 0.06250162 -0.07592494 0.095125645 -0.014107151 0.021505445
0.044540465 0.025783043 -0.15649918 -0.054060068 -0.031526506 0.055451594 -0.040339805 0.054049782
0.07877838 0.06215371 -0.006953107 0.14118035 0.07326156 0.09834891 0.13148452 0.0983533
00000000: bde5 c4bc ae13 823c 8da9 2d3d c06b 5e3d
00000010: 61f6 0dbd 8b9d 92bd 9b6e adbd c0d0 ed3d
00000020: df6b aabd 643b 1cbd 4ba2 7ebd cb6f 16b9
00000030: d4db 243e bd0d 63bd ecd8 99bd 431b 84bd
00000040: 4d4f 17bd 692a 11be 02ae 9dbb b0a8 35be
00000050: eaa0 3a3d 7fda 02bd cc70 59be e1a2 3abd
00000060: b3b6 8c3d 639e dabd 26c9 83bc 236e 50bc
00000070: 84f3 773c 01e0 a9bc 01e4 22bd 0697 28ba
00000080: e9d6 6bbd 082e 6ebb 19ba b0bd 3d40 da3d
00000090: 8173 a63d a07d 18be e227 05be 34df 49bc
000000a0: 8757 cc3d 3a49 66bd d787 8cbd 134b 1bbd
000000b0: 049b 29bd 7bf6 7cbd 1226 01be 1eb5 3cbe
000000c0: e55e f63d ce07 95bd 4fc5 2c3d cc0c 0f3e
000000d0: fbb4 7b3d 4325 0c3d b9c2 79bd 8e70 e1bd
000000e0: 4e35 20be a0b4 92bc 89c3 a73c 2f48 36bd
000000f0: 4ff1 5cbd 15f5 9fbc d833 e0bc 9307 933d
00000100: bbc2 78bd a8b5 09be 8fd1 46bd f538 f03d
00000110: 8fbe 05be eb9a f1bd 0061 af3d cb64 863c
00000120: d86b 23be 1065 7b3d 08b2 6abc 9672 25bd
00000130: d130 373d 8ed3 fcbc 258d 603c 7641 12bc
00000140: bc0a d23d 5c4f 153e 801d 82bc 9501 86bd
00000150: e7b9 efbd 8564 98bd 731a 573d 7878 82bc
00000160: 6a90 063e b849 733d e646 953d b155 bfbc
00000170: 03dd 533d 5500 e9bb 1229 a6bc 8165 443d
00000180: d47d c43c 409e 8f39 6be4 cb3d d7ee d6bd
00000190: c664 2abd f3f1 8b3d d4a9 55bc 3abf 15bd
000001a0: 6bac b03c 76fe 11be f5c2 bfbc c1ec 033c
000001b0: d6ab 98bd 1efd 6c3d d2ee e83c 71c5 b2bd
000001c0: fef3 a93d d8a8 faba 8503 f9bd 6879 73bd
000001d0: 5f87 a3bd 5cf2 3b3a c119 85bd 65a9 03be
000001e0: 2c9f bd3b 96ac ccbd af27 0fbe 36dd 203e
000001f0: 4972 fe3b fa11 023c 1c83 b83d 0289 9f3d
00000200: 8754 bbbd 25e2 953d 2f90 873d 6884 a139
00000210: c815 02be c023 4cbd c362 563d c7be 593d
00000220: baae 643d fbcf 7bbd 0e98 393d efe0 9fbc
00000230: ac0d 173d 7c7d 93bc e7de 5ebd 019d 8fbd
00000240: 345f 7a3c d2c0 12be 827f 8f3b 3af7 f6bd
00000250: 4572 043e c24a eebc d0f1 08bd fd5d 24be
00000260: d48a 523d be42 233c e921 673d ce26 de3d
00000270: 638d 903b d450 d63d 1dec 24bd a519 ffbc
00000280: 1df1 c73c 15fd bb3c ede0 c3bc c1e4 1f3d
00000290: ec13 0dbd 0bf6 e9bc 7893 50bc 3c7c 87bd
000002a0: 560c b73d 6db9 ed3c e578 aabd 3715 393b
000002b0: 1b59 10bd 3a5d b03c 6e89 723d 1a93 203b
000002c0: a68a d53d 09e3 32bd 441d 7dbd 547f 583d
000002d0: fd41 9fbc 8c16 ccbc 0942 84bd f288 e4bd
000002e0: 93ec b9bd 9b45 0abc 0402 703c 5cf0 473d
000002f0: efcc abbd 6799 f93c b3f8 fc3c 98d4 d63d
00000300: 1707 c7bc 0e45 85bd 88ac 5bbd ddaa d83c
00000310: 344e d5bd 06f0 d3bd 08ae 723d cab2 dcbd
00000320: 33e3 b1bc de49 8d3d 357c 66bd 518c 273c
00000330: f188 7b3d 18dd 1bbd 7e39 29bd b135 ae3d
00000340: 7811 113c d1f2 c33c bab7 eb3d 80ed 983d
00000350: a5d6 28bd 4da5 1ebe 534f a8bd 91c1 053d
00000360: 33c7 683d ec66 043e de34 fdbc 4644 28bd
00000370: f2c3 1e3d e28b 863d 971a 98bc dba1 24bd
00000380: 6ae9 de3c b63b f7bd f0bb a83d 75f3 34be
00000390: 5022 63bd b560 b23d 3b54 8e3d 3a09 393c
000003a0: f500 983c ccff 01be 172a 8dbd d900 803d
000003b0: 897e 9bbd 3cd1 c23d ae21 67bc 302c b03c
000003c0: 1070 363d f636 d33c 5241 20be 176e 5dbd
000003d0: f021 01bd 3621 633d 5a3b 25bd 4e63 5d3d
000003e0: 8f56 a13d e394 7e3d e4d6 e3bb 9591 103e
000003f0: 280a 963d 276b c93d e1a3 063e 746d c93d

lstm.bias_hh_l0 f4 [512]
-0.08454529 0.08513191 -0.010517605 -0.033139244 -0.047873896 -0.119828865 -0.05714233 -0.017630091
-0.094485395 -0.012936311 -0.09511838 -0.035691924 0.12002286 -0.035216168 -0.0019193614 -0.0020254839
-0.026462395 -0.2021148 0.02707338 -0.10845169 0.0030196544 0.058000755 -0.0779913 -0.101605535
0.029338878 -0.043195613 -0.093684785 -0.034373447 -0.04636904 0.018736118 -0.06228676 -0.10579826
0.078524984 -0.11873345 -0.064801484 -0.054683395 0.047740463 -0.13395007 -0.059673082 -0.022406973
-0.00416613 -0.008199599 0.0011379459 -0.091079116 -0.06729001 -0.0037296105 0.007930173 -0.17073418
0.01021017 0.008983551 -0.0008381938 0.122581236 -0.036428254 -0.09514622 0.019664679 0.0011270853
-0.15727828 -0.07814157 0.011645639 0.072789006 -0.16679862 0.00038796684 -0.020323081 -0.051670264
-0.12169644 -0.15793994 0.01853087 0.03525561 -0.022041943 0.0020953193 0.043139838 -0.058278892
-0.1373119 0.02789749 0.027505746 0.019133383 0.046979256 -0.09981486 -0.0028722857 0.046798468
0.11236654 0.18870112 -0.0516872 -0.04142579 -0.11052553 -0.045208186 -0.08018785 0.023615016
-0.008219478 0.063763 0.0012634501 0.04327046 -0.065427765 0.022888107 0.03390856 -0.08668147
-0.041077636 -0.05741713 0.123833016 -0.16346692 -0.036437094 -0.0355109 -0.0036924987 -0.015380712
-0.03262885 -0.036923435 0.056141414 0.043810956 -0.028906133 0.0053297053 -0.01538928 -0.13461341
-0.0033015984 0.06839443 -0.13214386 -0.08831227 -0.0396016 -0.046759 0.092830054 -0.08028603
0.064551964 -0.100559175 -0.11420932 0.066728294 0.09736988 0.025983041 0.003963694 0.17248301
0.02825572 -0.016887337 -0.025944572 0.06999521 -0.12934867 0.024034105 -0.063757926 0.119888425
0.039482072 -0.077425204 0.068403356 -0.008497391 0.06989921 -0.036754686 -0.071085714 0.000723979
0.022493003 -0.085480295 -0.07161413 0.011371526 0.118577115 -0.05404818 -0.085599825 -0.11960092
0.06970795 0.013403624 0.013813907 0.08349135 0.024743373 0.085561335 0.05162958 -0.05116171
0.08017751 0.0037499482 -0.016639423 -0.04248172 -0.032429256 -0.07453941 -0.15729561 0.070557036
-0.05317741 -0.046523046 0.00029395116 -0.047041323 -0.018212663 0.023669282 -0.054363262 -0.1266345
0.047263708 -0.06676137 0.07472074 -0.07479723 0.030631421 -0.016538853 0.011838642 -0.12266062
-0.024211908 0.0008924365 -0.029082667 0.080150545 -0.17639631 -0.036197614 -0.024505736 0.0845149
0.05467325 0.043225233 0.011597502 -0.04009931 -0.03431454 -0.11564829 0.1122495 -0.110274516
-0.12595898 0.07935064 -0.041197043 0.08112351 0.020753158 0.023446845 0.10581755 0.042468634
0.016840143 0.11926829 -0.009930631 0.043298528 -0.15017247 -0.072687484 0.061845057 0.013403617
0.06763781 0.12762877 -0.0606469 -0.02795521 -0.062737025 0.05176058 0.012076483 0.09284781
-0.088974655 -0.14024569 0.06289219 -0.062068716 -0.088848084 -0.03365597 -0.010618577 0.009873445
0.112425886 -0.06743142 -0.016425982 -0.059080802 -0.012044826 0.00620925 0.10004022 -0.13595472
0.005079016 -0.06790718 -0.100450434 -0.01761774 -0.117989995 0.028473508 0.037089877 -0.040245313
0.09410707 -0.014562446 -0.08061891 0.15488927 -0.03798547 0.009344365 0.13760401 0.052095447
00000000: 1526 adbd a459 ae3d 0852 2cbc 04bd 07bd
00000010: 6b17 44bd d668 f5bd 130e 6abd fb6c 90bc
00000020: 8f81 c1bd d2f2 53bc 6dcd c2bd b231 12bd
00000030: 8cce f53d d43e 10bd 1593 fbba fbbd 04bb
00000040: aac7 d8bc 2ff7 4ebe fec8 dd3c eb1b debd
00000050: 65e5 453b 3392 6d3d e7b9 9fbd 9016 d0bd
00000060: 1658 f03c e2ed 30bd cfdd bfbd 2ccb 0cbd
00000070: 76ed 3dbd 7d7c 993c 6720 7fbd c2ac d8bd
00000080: b5d1 a03d 862a f3bd a4b6 84bd b2fb 5fbd
00000090: 818b 433d 352a 09be c36b 74bd d48e b7bc
000000a0: 0884 88bb 9c57 06bc 2127 953a b087 babd
000000b0: 58cf 89bd 7b6c 74bb 8eed 013c f1d4 2ebe
000000c0: 8f48 273c be2f 133c 3cba 5bba df0b fb3d
000000d0: cb35 15bd 05dc c2bd d217 a13c b5ba 933a
000000e0: 8f0d 21be b008 a0bd 5acd 3e3c 6712 953d
000000f0: 42cd 2abe 0768 cb39 977c a6bc 33a4 53bd
00000100: fc3b f9bd 02bb 21be 0dce 973c 3068 103d
00000110: 4e91 b4bc a051 093b 66b3 303d d9b5 6ebd
00000120: 7e9b 0cbe 4789 e43c bb53 e13c 9dbd 9c3c
00000130: 526d 403d bc6b ccbd f53c 3cbb c0af 3f3d
00000140: 6e20 e63d de3a 413e f5b5 53bd 17ae 29bd
00000150: 365b e2bd 382c 39bd 8739 a4bd 4774 c13c
00000160: fdaa 06bc 2d96 823d 5a9a a53a 5e3c 313d
00000170: fefe 85bd d77f bb3c b4e3 0a3d 0e86 b1bd
00000180: 0641 28bd 392e 6bbd 2a9c fd3d df63 27be
00000190: 103f 15bd e173 11bd d9fd 71bb 62ff 7bbc
000001a0: d4a5 05bd 073d 17bd 8af4 653d 1e73 333d
000001b0: 8ecc ecbc cfa4 ae3b 5223 7cbc 19d8 09be
000001c0: a15f 58bb 6112 8c3d b850 07be 10dd b4bd
000001d0: 4a35 22bd 5d86 3fbd af1d be3d 016d a4bd
000001e0: d233 843d f8f1 cdbd 93e6 e9bd d8a8 883d
000001f0: dc69 c73d 63da d43c e0e1 813b 639f 303e
00000200: 8a78 e73c 5057 8abc b689 d4bc a659 8f3d
00000210: fa73 04be 2ce3 c43c 8493 82bd 1088 f53d
00000220: f4b7 213d 1b91 9ebd 0f17 8c3d a438 0bbc
00000230: 5127 8f3d 158c 16bd 6395 91bd 69c9 3d3a
00000240: 3f43 b83c 4b10 afbd 6eaa 92bd a34f 3a3c
00000250: 8fd8 f23d a061 5dbd f64e afbd 54f1 f4bd
00000260: 0bc3 8e3d e09a 5b3c ba53 623c 83fd aa3d
00000270: 9db2 ca3c c83a af3d 8a79 533d f18e 51bd
00000280: 1b34 a43d b1c1 753b 664f 88bc 5001 2ebd
00000290: 8ad4 04bd 1ea8 98bd 1a12 21be 3580 903d
000002a0: 8ed0 59bd f38e 3ebd 751d 9a39 67ae 40bd
000002b0: b932 95bc 15e6 c13c 03ac 5ebd 79ac 01be
000002c0: 9797 413d 2fba 88bd 3007 993d 4a2f 99bd
000002d0: bfee fa3c 7d7c 87bc ddf6 413c 7e35 fbbd
000002e0: 0d58 c6bc 66f2 693a c63e eebc f825 a43d
000002f0: 3ca1 34be f343 14bd 41c0 c8bc 2616 ad3d
00000300: 0ff1 5f3d f10c 313d 7303 3e3c 2d3f 24bd
00000310: 678d 0cbd 03d9 ecbd 11e3 e53d 9bd7 e1bd
00000320: 64fb 00be 9782 a23d 3bbe 28bd 1524 a63d
00000330: 8702 aa3c 9913 c03c dfb6 d83d 97f3 2d3d
00000340: 57f4 893c ef42 f43d 16b4 22bc cc59 313d
00000350: d0c6 19be 2ddd 94bd 3e51 7d3d d89a 5b3c
00000360: b185 8a3d 1eb1 023e e268 78bd 5302 e5bc
00000370: 457c 80bd e702 543d 71dc 453c fe26 be3d
00000380: 5838 b6bd 919c 0fbe 9fcd 803d c43b 7ebd
00000390: fcf5 b5bd d8da 09bd 8af9 2dbc 3bc4 213c
000003a0: 8b3f e63d 7c19 8abd c88f 86bc b6fe 71bd
000003b0: a957 45bc f776 cb3b e3e1 cc3d b737 0bbe
000003c0: e06d a63b eb12 8bbd f5b8 cdbd 1453 90bc
000003d0: bda4 f1bd 4641 e93c 8eeb 173d 45d8 24bd
000003e0: 35bb c03d 5397 6ebc 871b a5bd 4b9b 1e3e
000003f0: a796 1bbd 1c19 193c 11e8 0c3e 0962 553d

lstm.weight_ih_l0_reverse f4 [512, 64]
0.051264714 0.019817159 0.04248667 -0.045957755 0.035442166 0.038352262 -0.16906537 -0.14354913
-0.09472591 0.042169277 -0.1610756 -0.0014994773 -0.043975897 0.06208922 0.046710495 0.09022176
-0.009358878 0.026494935 -0.11732417 -0.016234016 -0.06433715 -0.04508294 -0.047161274 0.06711848
-0.054266207 0.00066294725 0.07662345 -0.15126176 -0.091037914 0.06315805 -0.07317732 -0.23939086
-0.034017432 0.09620703 -0.0424834 -0.04081823 -0.054431368 -0.118231736 0.013850092 -0.083195865
-0.06831023 0.016620856 -0.040972527 -0.022817908 -0.06416251 0.02754347 -0.06119784 -0.01605663
-0.058106024 -0.04047842 0.0060643028 -0.030000836 0.07369256 0.09799973 -0.06960346 0.043965783
-0.13824065 -0.008943695 -0.00045131572 -0.009952724 0.101652294 -0.1296185 -0.14784375 -0.023742003
0.087614305 0.09650814 -0.11140479 0.033308357 0.095412895 0.09062975 0.071878776 -0.09128394
0.03932659 -0.035469506 -0.09916812 -0.08464509 0.0049256035 -0.16622531 0.06151605 -0.0012441779
0.17025813 -0.17222163 -0.028263576 -0.068397604 -0.03790105 -0.09618971 -0.09986426 0.06981895
-0.15972552 0.024200326 0.18542342 0.053240318 -0.118637666 -0.047334608 -0.05042952 0.056250107
-0.00050208083 0.08118071 0.0034420006 -0.05393752 -0.03403677 0.040002964 0.055644125 -0.22031398
0.015671704 -0.037447736 -0.01771763 0.053587355 -0.2267461 0.06858233 0.056167323 0.011679298
0.109596185 0.03295582 0.0531405 -0.14751337 0.009298457 0.14608347 -0.090015166 0.05537408
-0.12661958 0.025643984 0.06063144 0.15101877 -0.023640223 -0.26094127 -0.16160186 0.044208407
-0.07099238 3.6034366e-05 -0.049743865 -0.109930605 -0.1530719 -0.07617777 -0.0020768715 -0.046501286
-0.008434349 -0.06137817 0.03109871 0.03776804 0.008829302 -0.06959882 0.0038634103 -0.11614622
0.001910548 -0.08887259 0.09334837 -0.14579992 -0.0020034856 0.008547723 -0.04230177 -0.074098386
0.04073926 -0.09453726 0.009871851 -0.026530044 -0.026849233 -0.16035257 0.025562603 -0.06380129
-0.14382687 0.010446587 -0.09670189 0.028548177 -0.13511361 -0.03212254 -0.0850353 -0.04811923
-0.1114019 -0.15493686 0.03983443 -0.119378455 0.025299493 -0.022210838 -0.03483715 0.07957338
-0.20849887 -0.09185121 0.030971047 -0.05957349 -0.11007687 -0.05727845 -0.1430435 -0.072149254
-0.17079522 -0.09864671 -0.13247432 0.049586006 0.041974656 -0.077489235 0.029889937 -0.018759346
-0.014766741 0.06791449 -0.0007249805 0.06690919 -0.041059196 -0.12606393 0.24934994 0.09579762
0.0418973 -0.12769303 -0.13178669 0.053473003 0.007498335 -0.0023055745 -0.051552992 -0.22456366
-0.0032858439 -0.19695602 0.21740073 -0.05836044 -0.09986821 0.02492105 -0.1059691 0.056360926
-0.14718185 -0.026108075 0.0874387 -0.04939065 -0.054967985 0.13582356 0.04233248 0.034593318
-0.11869229 0.0706636 0.05129049 -0.036915924 -0.067854695 0.043511238 -0.09155908 -0.1170566
-0.07815609 -0.22945315 0.037007287 -0.1790822 -0.13548324 -0.030951941 0.054056443 -0.025159087
0.029215414 -0.0006138897 0.10215705 0.013057448 -0.12960318 -0.17510699 0.11223587 0.066800095
-0.023710862 -0.1438936 -0.024483321 -0.065875515 -0.026850529 -0.24717677 -0.020858938 0.16758172
00000000: f3fa 513d 9857 a23c 8106 2e3d 333e 3cbd
00000010: ce2b 113d 4317 1d3d 791f 2dbe 8bfe 12be
00000020: a8ff c1bd b1b9 2c3d 01f1 24be 1c8a c4ba
00000030: 1220 34bd 4451 7e3d 8153 3f3d 30c6 b83d
00000040: fb55 19bc e80b d93c a847 f0bd 33fd 84bc
00000050: 32c3 83bd e4a8 38bd 2e2c 41bd 6a75 893d
00000060: 3e46 5ebd a3c9 2d3a c1ec 9c3d 5de4 1abe
00000070: 1672 babd 0259 813d fedd 95bd e122 75be
00000080: dd55 0bbd 3108 c53d 1303 2ebd 0431 27bd
00000090: 6df3 5ebd 7b23 f2bd 7feb 623c 9862 aabd
000000a0: 3ce6 8bbd 7628 883c cfd2 27bd 9fec babc
000000b0: a267 83bd d8a2 e13c 96aa 7abd 3289 83bc
000000c0: 9500 6ebd b3cc 25bd 0fb7 c63b 50c4 f5bc
000000d0: 20ec 963d 15b4 c83d 428c 8ebd 7715 343d
000000e0: f58e 0dbe 9388 12bc 929e ecb9 c010 23bc
000000f0: 142f d03d b6ba 04be 5a64 17be 977e c2bc
00000100: 216f b33d 0fa6 c53d 3228 e4bd 586e 083d
00000110: d667 c33d 179c b93d 2e35 933d 13f3 babd
00000120: eb14 213d 7948 11bd a818 cbbd 685a adbd
00000130: f566 a13b f836 2abe 41f8 7b3d af13 a3ba
00000140: 2658 2e3e de5a 30be 0489 e7bc 0b14 8cbd
00000150: 223e 1bbd 1cff c4bd a285 ccbd 3dfd 8e3d
00000160: 168f 23be c33f c63c a3df 3d3e 8512 5a3d
00000170: 4ef8 f2bd efe1 41bd 2f8f 4ebd 8366 663d
00000180: 139e 03ba 1242 a63d 3093 613b 97ed 5cbd
00000190: 246a 0bbd 26da 233d 18eb 633d fd99 61be
000001a0: f261 803c cc62 19bd 9024 91bc 6a7e 5b3d
000001b0: 2130 68be e574 8c3d b50f 663d 875a 3f3c
000001c0: f773 e03d affc 063d daa9 593d bf0d 17be
000001d0: 8e58 183c e896 153e df59 b8bd eecf 623d
000001e0: 90a8 01be 5513 d23c ac58 783d aaa4 1a3e
000001f0: 24a9 c1bc 189a 85be f57a 25be e013 353d
00000200: 7464 91bd 9b23 1738 39c0 4bbd 4c23 e1bd
00000210: e1be 1cbe 1703 9cbd 1f1c 08bb 2278 3ebd
00000220: 3930 0abc ad67 7bbd b9c2 fe3c a9b2 1a3d
00000230: c7a8 103c d389 8ebd 4531 7d3b 12de edbd
00000240: 5a6b fa3a d502 b6bd 6e2d bf3d 934c 15be
00000250: e94c 03bb c00b 0c3c 9f44 2dbd e5c0 97bd
00000260: 36de 263d c09c c1bd 8bbd 213c 8955 d9bc
00000270: ecf2 dbbc 7733 24be aa68 d13c 40aa 82bd
00000280: 5a47 13be 2928 2b3c a40b c6bd dedd e93c
00000290: 395b 0abe ed92 03bd fd26 aebd ab18 45bd
000002a0: ae26 e4bd c5a7 1ebe 6d29 233d b17c f4bd
000002b0: e240 cf3c 81f3 b5bc 66b1 0ebd 5ef7 a23d
000002c0: ba80 55be 7d1c bcbd feb6 fd3c 5503 74bd
000002d0: fb6f e1bd cf9c 6abd ff79 12be fdc2 93bd
000002e0: f1e4 2ebe 4907 cabd 59a7 07be b21a 4b3d
000002f0: 9eed 2b3d adb2 9ebd bedb f43c 33ad 99bc
00000300: 33f0 71bc c116 8b3d 9e0c 3eba af07 893d
00000310: b02d 28bd e716 01be 9755 7f3e 8b31 c43d
00000320: 819c 2b3d f6c1 02be 17f3 06be 8206 5b3d
00000330: 98b4 f53b 1f19 17bb 3b29 53bd 04f4 65be
00000340: 5057 57bb d7ae 49be 4c9e 5e3e 5b0b 6fbd
00000350: b487 ccbd 3b27 cc3c 5406 d9bd b7da 663d
00000360: d7b6 16be 9ae0 d5bc 1013 b33d da4d 4abd
00000370: 1c26 61bd 5515 0b3e d364 2d3d b9b1 0d3d
00000380: f114 f3bd 14b8 903d fa15 523d 2735 17bd
00000390: 67f7 8abd d738 323d 5483 bbbd 5fbb efbd
000003a0: 4d10 a0bd c4f5 6abe f494 173d 5361 37be
000003b0: 1ebc 0abe ed8e fdbc 4a6a 5d3d 6e1a cebc
000003c0: 2a55 ef3c 71ed 20ba b737 d13d e8ee 553c
000003d0: b2b6 04be 3f4f 33be ebdb e53d 7dce 883d
000003e0: 483d c2bc d858 13be 3f91 c8bc bee9 86bd
000003f0: a4f5 dbbc e81b 7dbe 5de0 aabc 8b9a 2b3e
