ForestCLAM_CLAM.pth (torch, 831994 bytes, 15 tensors)

cnn.0.weight f4 [32, 10, 3]
-0.23122375 -0.16820833 0.1594236 -0.1897922 0.14407994 -0.12603725 -0.14836371 0.0387357
0.0079759415 0.18343759 -0.095865384 0.0590876 0.04865586 0.15614054 0.13183945 -0.22458898
0.08980974 -0.13600361 0.13357054 0.17767695 0.2206112 0.07299446 0.061302703 -0.069006495
0.14598323 0.08204068 -0.09413408 -0.111814715 0.10247382 -0.077420734 0.09370762 -0.035340853
-0.018424954 0.18113974 0.13340467 -0.094757654 0.0016096369 -0.0735021 -0.11991883 0.20459282
-0.12052167 -0.24454054 0.23657155 -0.14494899 -0.100639395 0.15110075 0.13862698 0.024908256
-0.12332214 -0.09095065 0.039264157 0.23817584 0.19034684 0.13782182 -0.070408806 -0.02941971
-0.082663774 0.019737918 -0.0046223775 0.036780912 0.01975538 0.15247992 0.013275325 0.13556725
-0.07407186 0.15526043 -0.1837147 -0.104716115 -0.117485754 -0.15937762 -0.043718968 0.16141444
-0.029040523 0.22354431 0.14471789 0.13027427 0.021779925 -0.06532706 0.14176628 -0.12507524
0.09007267 0.240944 -0.16407906 -0.10011884 0.0649779 0.038871277 0.11428867 0.10208504
0.00619076 0.010236414 -0.1656321 -0.054668363 0.14838351 -0.058586128 0.28833708 0.011871685
-0.1456261 0.057329983 -0.0836639 -0.2139891 0.060522087 -0.12721129 -0.152229 0.071477875
-0.18889731 -0.12170938 0.035130583 0.24562632 -0.2516612 0.017892396 0.015367962 0.10528994
-0.03220129 0.07767419 -0.18723857 -0.10352262 0.126177 -0.029455725 -0.1594953 0.12004949
0.04049341 0.1750789 0.13045877 -0.20806624 0.13212825 -0.016036509 0.0719721 -0.13362019
0.050335303 0.05563454 0.04694515 -0.11631883 -0.024771126 -0.16403389 -0.17485948 0.1486557
0.26071954 0.24446298 -0.061408885 -0.051029302 -0.07318261 0.11744262 0.0011995297 0.11616851
-0.1869053 0.019147847 0.121151105 0.09373631 -0.044266623 -0.1352053 -0.17017712 0.05912789
0.08446735 0.13589697 -0.2263048 0.10791893 0.06754799 -0.14510846 0.13818668 -0.055932034
-0.12626642 0.17154886 -0.085356966 -0.23444702 -0.041178692 0.13339727 0.062406085 -0.10893577
-0.12072943 0.054947797 -0.03743414 -0.12578177 0.13609956 0.1984225 -0.21860193 -0.07579108
-0.013574434 0.25936016 0.23756313 0.06355122 -0.051654253 -0.16674432 0.0514779 0.028306998
0.043318707 -0.1344803 -0.06342231 0.00476447 0.23371245 -0.2088605 0.005207454 0.13387787
-0.021703491 -0.142619 -0.023194239 -0.21633281 -0.19725882 -0.01458542 -0.09960516 0.08258651
0.10559915 0.06830921 0.15073794 -0.004680446 0.16510986 0.08243537 -0.15355864 -0.07126976
0.19537792 0.07005845 0.18903357 -0.1191549 -0.09163555 0.15018 -0.17886338 0.17509557
-0.0031809253 -0.19958521 0.057867758 -0.016844267 -0.024872733 0.005677722 -0.22344059 0.018323082
0.14724806 0.14217171 -0.16770542 0.21678247 0.16732083 -0.13873266 -0.1539671 -0.17922656
-0.022632914 -0.08393545 -0.008676883 -0.05770708 -0.036944557 0.087922245 0.03134494 -0.018739058
0.15008591 -0.19077499 -0.09803118 0.030747104 -0.0638428 -0.17729288 -0.13682237 0.042382903
-0.12137757 0.010676813 -0.07401402 -0.101849146 0.04215134 -0.05634764 -0.03624024 0.15424335
00000000: ebc5 6cbe ce3e 2cbe f13f 233e e358 42be
00000010: b189 133e e90f 01be a8ec 17be 53a9 1e3d
00000020: 86ad 023c 10d7 3b3e 1255 c4bd d705 723d
00000030: 5e4b 473d 4ee3 1f3e ec00 073e a7fa 65be
00000040: 2bee b73d 8844 0bbe b7c6 083e f2f0 353e
00000050: e7e7 613e 1f7e 953d 8b18 7b3d 4753 8dbd
00000060: a17c 153e f204 a83d 5ec9 c0bd 1dff e4bd
00000070: cbdd d13d c38e 9ebd c8e9 bf3d 92c1 10bd
00000080: eeef 96bc b27c 393e 3c9b 083e 4d10 c2bd
00000090: 74fa d23a 4588 96bd 0198 f5bd c880 513e
000000a0: 11d4 f6bd d668 7abe d03f 723e 826d 14be
000000b0: 071c cebd 28ba 1a3e 3bf4 0d3e 660c cc3c
000000c0: 5190 fcbd 5644 babd 74d3 203d 5ee4 733e
000000d0: 48ea 423e 2a21 0d3e 7e32 90bd 9b01 f1bc
000000e0: a04b a9bd 6ab1 a13c 5077 97bb 95a7 163d
000000f0: 09d6 a13c b223 1c3e c080 593c 24d2 0a3e
00000100: fdb2 97bd 97fc 1e3e b51f 3cbe 6775 d6bd
00000110: 5f9c f0bd e333 23be a912 33bd d449 253e
00000120: 64e6 edbc cde8 643e ed30 143e 9e66 053e
00000130: d06b b23c 32ca 85bd 2e2b 113e b913 00be
00000140: 0578 b83d 06ba 763e 5704 28be 1b0b cdbd
00000150: 2213 853d 7d37 1f3d 2e10 ea3d f611 d13d
00000160: dcdb ca3b a2b6 273c 769b 29be efeb 5fbd
00000170: d9f1 173e 02f8 6fbd eba0 933e 7581 423c
00000180: 021f 15be d8d2 6a3d fb57 abbd f51f 5bbe
00000190: 02e6 773d ad43 02be ebe1 1bbe fe62 923d
000001a0: 4c6e 41be c442 f9bd 16e5 0f3d 7785 7b3e
000001b0: bdd9 80be 1393 923c e8c9 7b3c 41a2 d73d
000001c0: 80e5 03bd a513 9f3d 78bb 3fbe ab03 d4bd
000001d0: 8b34 013e 224d f1bc bc52 23be 82dc f53d
000001e0: 6bdc 253d e247 333e fc96 053e 510f 55be
000001f0: a14c 073e ff5e 83bc 1c66 933d bbd3 08be
00000200: 642c 4e3d 0be1 633d 8f49 403d 9138 eebd
00000210: d1ec cabc 80f8 27be 5d0e 33be 3339 183e
00000220: 087d 853e 8154 7a3e e287 7bbd 1a04 51bd
00000230: c4e0 95bd c285 f03d 8a39 9d3a c1e9 ed3d
00000240: 1a64 3fbe f2db 9c3c 121e f83d d3f8 bf3d
00000250: eb50 35bd 4273 0abe e942 2ebe 1630 723d
00000260: 38fd ac3d 9328 0b3e 72bc 67be 9a04 dd3d
00000270: 9a56 8a3d 5097 14be cf80 0d3e fd18 65bd
00000280: fc4b 01be 81aa 2f3e a2cf aebd e112 70be
00000290: fdaa 28bd 4b99 083e 869d 7f3d b819 dfbd
000002a0: fe40 f7bd f110 613d 8a54 19bd f0cc 00be
000002b0: af5d 0b3e 452f 4b3e 2fd9 5fbe 5b38 9bbd
000002c0: 4e67 5ebc dbca 843e c043 733e 2427 823d
000002d0: 6993 53bd 06bf 2abe 7eda 523d 14e4 e73c
000002e0: f56e 313d 34b5 09be 8ee3 81bd 451f 9c3b
000002f0: 5152 6f3e 87df 55be 4aa3 aa3b 4817 093e
00000300: 85cb b1bc b70a 12be d801 bebc 5986 5dbe
00000310: 37fe 49be aff7 6ebc cafd cbbd 1e23 a93d
00000320: 5e44 d83d b3e5 8b3d 0c5b 1a3e 6d5e 99bb
00000330: 8f12 293e e0d3 a83d 7a3e 1dbe e1f5 91bd
00000340: 2611 483e ce7a 8f3d 0492 413e 7c07 f4bd
00000350: 6bab bbbd c9c8 193e f627 37be 414c 333e
00000360: 1277 50bb 1160 4cbe be06 6d3d fdfc 89bc
00000370: e7c1 cbbc 2f0c ba3b 9ccd 64be 4a1a 963c
00000380: 32c8 163e 7695 113e f8ba 2bbe 39fc 5d3e
00000390: 2756 2b3e ef0f 0ebe 8da9 1dbe 2b87 37be
000003a0: a968 b9bc 59e6 abbd 7c29 0ebc 425e 6cbd
000003b0: 2d53 17bd 9410 b43d 8d63 003d a782 99bc
000003c0: 1fb0 193e 855a 43be 92c4 c8bd 5ae1 fb3c
000003d0: 04c0 82bd 448c 35be 2a1b 0cbe b299 2d3d
000003e0: ce94 f8bd cded 2e3c aa94 97bd 4996 d0bd
000003f0: e2a6 2c3d c8cc 66bd a570 14bd f8f1 1d3e

cnn.0.bias f4 [32]
-0.15334831 0.016135102 0.08902531 0.08992652 0.011269763 0.03137943 0.06274739 -0.23015052
-0.016067619 0.044254676 0.020226305 0.09745967 -0.13028085 0.019167205 -0.012393714 -0.1612813
-0.19699441 0.029396087 -0.0858786 -0.03346834 -0.00011790223 -0.050059974 0.004000912 -0.2904136
-0.15209322 -0.1174646 -0.22433443 -0.11038903 -0.20684484 -0.05985072 -0.16596404 0.0064205765
00000000: 5707 1dbe c32d 843c e752 b63d 652b b83d
00000010: d0a4 383c b887 003d b481 803d 94ac 6bbe
00000020: 3da0 83bc 6444 353d a3b1 a53c ef98 c73d
00000030: 5868 05be 8b04 9d3c 010f 4bbc ed26 25be
00000040: e7b8 49be 10d0 f03c 1fe1 afbd 1916 09bd
00000050: 4742 f7b8 b00b 4dbd 151a 833b 17b1 94be
00000060: 53be 1bbe 4891 f0bd edb7 65be a513 e2bd
00000070: 22cf 53be 0726 75bd 7af2 29be b363 d23b

cnn.3.weight f4 [64, 32, 3]
-0.08084396 0.07213288 0.09227954 -0.06879972 0.02100397 -0.071917 0.044601154 -0.18841183
-0.06257917 -0.04801618 -0.029279673 -0.1132538 0.017253147 -0.018682968 -0.014929392 0.00903005
0.14587429 0.046088208 -0.091598436 0.008772817 -0.018636199 0.09591999 -0.058428753 -0.13180216
-0.21567671 -0.11413081 -0.012601742 0.015640512 -0.07779949 -0.093744785 -0.15664777 -0.051114637
0.031689085 0.06698119 0.098312885 0.14502345 0.17017744 0.07175109 0.103812724 -0.20028009
-0.021371184 -0.025054185 -0.14511006 -0.13848022 -0.04112119 0.19425392 -0.10529484 -0.09822843
-0.2683399 -0.02451243 -0.1541673 0.15024163 -0.018070951 0.019847946 -0.15493461 -0.0828991
0.07514561 -0.13542871 -0.10043437 0.019340051 0.088336945 -0.11238559 0.13226362 -0.12308372
0.05470488 0.092068695 0.014499554 -0.014644085 -0.07600956 -0.084377855 -0.024543067 -0.029502383
-0.019341877 0.051069878 0.06625543 -0.0630496 -0.06118157 -0.13736942 -0.15233491 -0.10468563
0.00915185 -0.14304684 0.07156808 0.07704885 0.20997484 -0.07890594 -0.28054747 -0.13179466
0.08040786 -0.08279307 0.1830344 -0.015362287 -0.08074918 0.05940841 0.00087612297 0.1526104
0.072993204 -0.16650857 0.08501641 0.09909863 0.09315858 -0.10823661 0.07320942 -0.051728547
-0.08018955 0.03565494 -0.038924288 -0.0020778489 -0.01707632 0.014999963 0.019766944 -0.015198984
0.088546336 -0.1269936 0.07548221 -0.016803928 0.04539574 -0.09784987 -0.048081696 -0.026025234
0.021912446 0.010535008 0.100907326 -0.052065585 -0.06439033 -0.20466006 -0.060758993 -0.12111631
-0.05880456 0.10973541 -0.08488965 0.046600085 -0.008707607 0.036516987 -0.008978547 0.090080954
-0.0027622583 0.043165248 0.16927765 0.03091936 -0.00852046 -0.27021214 0.028719485 -0.007192971
-0.0021503223 0.0941099 0.19918703 -0.07683476 -0.021622866 -0.14308655 -0.07419263 0.06759141
0.044760693 0.13155101 0.107724406 -0.010928001 0.12392412 0.047287237 -0.032721873 -0.10107986
0.041888814 -0.027171103 0.029403454 -0.033850893 -0.050289765 0.14776915 0.082136504 -0.084238425
0.013954085 0.01258507 -0.292003 -0.04456688 -0.111837484 -0.04708177 -0.055982128 -0.11579025
-0.039030224 -0.014006287 -0.10565809 -0.014951797 -0.0919475 -0.05040319 0.026408488 0.05880047
0.05831349 0.09936782 -0.053657085 -0.1750387 -0.099931106 0.029129025 -0.118776165 -0.28389633
-0.054463092 -0.07469711 -0.019787062 -0.013091825 -0.07474076 -0.0023859572 0.0059053223 -0.12168625
0.1251991 -0.017498981 0.018108672 -0.10995563 0.09020863 -0.12656586 -0.03608704 -0.0509749
-0.19791208 0.13773295 0.005625377 -0.02946621 -0.039365105 0.029044097 0.062314052 0.035356116
-0.10488899 -0.025177492 0.055960886 0.16387798 -0.07452118 -0.07913655 0.068481505 -0.014190006
0.21786852 -0.08776143 -0.034968432 -0.1361918 0.05695696 -0.09929642 -0.0039597405 0.0035679108
-0.09219141 0.08047195 0.043706637 0.03252367 0.11926793 0.08384998 -0.09709079 -0.025086034
-0.0280887 0.0020444698 -0.092781045 0.21695784 -0.05527983 -0.05266629 -0.06868841 0.018065903
0.00041543695 -0.07990846 -0.04272812 0.035400756 0.028145501 0.013103359 -0.060898762 0.20580895
00000000: 8591 a5bd 67ba 933d 0efd bc3d dee6 8cbd
00000010: 8510 ac3c 3849 93bd b3af 363d 08ef 40be
00000020: 8229 80bd 9dac 44bd eddb efbc 9cf1 e7bd
00000030: 7956 8d3c 060d 99bc 699a 74bc c6f2 133c
00000040: 1260 153e fdc6 3c3d f697 bbbd ddbb 0f3c
00000050: f1aa 98bc b371 c43d fd52 6fbd 25f7 06be
00000060: 5bda 5cbe 6abd e9bd 8977 4ebc 8820 803c
00000070: 5755 9fbd 44fd bfbd 4668 20be 955d 51bd
00000080: 6acc 013d 6f2d 893d 4458 c93d 0781 143e
00000090: ff42 2e3e 3cf2 923d c49b d43d 3916 4dbe
000000a0: 9f12 afbc 6f3e cdbc bb97 14be c2cd 0dbe
000000b0: b16e 28bd 80ea 463e d2a4 d7bd fd2b c9bd
000000c0: d963 89be 4bce c8bc 08de 1dbe f1d8 193e
000000d0: 8809 94bc 2998 a23c 2ea7 1ebe 01c7 a9bd
000000e0: f1e5 993d d3ad 0abe 89b0 cdbd 076f 9e3c
000000f0: 00ea b43d 6b2a e6bd 1d70 073e 5113 fcbd
00000100: 3912 603d 838e bc3d 8a8f 6d3c bfed 6fbc
00000110: e6aa 9bbd 4cce acbd 8b0e c9bc fbae f1bc
00000120: db72 9ebc a62e 513d edb0 873d 2620 81bd
00000130: 8799 7abd 92aa 0cbe affd 1bbe 6b65 d6bd
00000140: a4f1 153c df7a 12be 4992 923d cacb 9d3d
00000150: a503 573e 7099 a1bd eba3 8fbe 2ef5 06be
00000160: e0ac a43d 6a8f a9bd 5f6d 3b3e 1ab2 7bbc
00000170: d35f a5bd 3c56 733d 9eab 653a e745 1c3e
00000180: 767d 953d 3981 2abe 151d ae3d 39f4 ca3d
00000190: edc9 be3d 28ab ddbd d2ee 953d 50e1 53bd
000001a0: 6b3a a4bd ea0a 123d 136f 1fbd 852c 08bb
000001b0: a3e3 8bbc 68c2 753c 49ee a13c 2905 79bc
000001c0: c857 b53d 9c0a 02be 6b96 9a3d 64a8 89bc
000001d0: e2f0 393d 8365 c8bd 50f1 44bd df32 d5bc
000001e0: bb81 b33c 079b 2c3c 80a8 ce3d b942 55bd
000001f0: 14df 83bd 6892 51be 6cde 78bd d40b f8bd
00000200: 0ddd 70bd f5bc e03d a0da adbd bbdf 3e3d
00000210: 5aaa 0ebc d692 153d c11a 13bc 5d7c b83d
00000220: 0107 35bb 0bce 303d 1f57 2d3e 994a fd3c
00000230: 6699 0bbc 3f59 8abe 2045 eb3c 04b3 ebbb
00000240: 6cec 0cbb b1bc c03d aff7 4b3e 8b5b 9dbd
00000250: 7022 b1bc 4885 12be 4ef2 97bd 5d6d 8a3d
00000260: fd56 373d 4fb5 063e 9d9e dc3d 5c0b 33bc
00000270: eecb fd3d 43b0 413d 5f07 06bd f502 cfbd
00000280: 9b93 2b3d ef95 debc 83df f03c 3ca7 0abd
00000290: a4fc 4dbd cc50 173e 2f37 a83d 3285 acbd
000002a0: ad9f 643c 9c31 4e3c 6b81 95be c38b 36bd
000002b0: 0d0b e5bd d0d8 40bd 844d 65bd 7023 edbd
000002c0: 28de 1fbd a07a 65bc 4563 d8bd 62f8 74bc
000002d0: f94e bcbd 9373 4ebd 9d56 d83c c3d8 703d
000002e0: 20da 6e3d 5b81 cb3d 88c7 5bbd 583d 33be
000002f0: aea8 ccbd fe9f ee3c eb40 f3bd dc5a 91be
00000300: b114 5fbd ccfa 98bd 7a18 a2bc 187f 56bc
00000310: af11 99bd b85d 1cbb 6f81 c13b a436 f9bd
00000320: 3134 003e 065a 8fbc a358 943c 6b30 e1bd
00000330: 4dbf b83d 7b9a 01be 01d0 13bd 0fcb 50bd
00000340: 77a9 4abe de09 0d3e 1555 b83b 1f63 f1bc
00000350: 4e3d 21bd e3ed ed3c 053d 7f3d 93d1 103d
00000360: 0ad0 d6bd 0741 cebc 3e37 653d a1cf 273e
00000370: 8f9e 98bd 5812 a2bd 0840 8c3d 337d 68bc
00000380: ed18 5f3e 44bc b3bd 0f3b 0fbd dd75 0bbe
00000390: b44b 693d ec5b cbbd b6c0 81bb 9cd3 693b
000003a0: dace bcbd 7ace a43d bb05 333d 8a37 053d
000003b0: bf42 f43d 8ab9 ab3d 89d7 c6bd 3a81 cdbc
000003c0: 461a e6bc 83fc 053b fd03 bebd 322a 5e3e
000003d0: 1a6d 62bd 9cb8 57bd 82ac 8cbd f2fe 933c
000003e0: 01cf d939 0ca7 a3bd ae03 2fbd 6200 113d
000003f0: 6591 e63c 79af 563c fb70 79bd 95bf 523e

cnn.3.bias f4 [64]
-0.055275135 -0.11519174 -0.1144884 0.08825111 -0.041278563 0.033283614 -0.051974997 0.07206899
-0.03341071 -0.078997314 0.04885942 -0.022649694 0.048979536 -0.10295462 0.021503255 0.049442016
0.031323355 -0.081748895 -0.04226633 -0.08065532 -0.011405246 -0.0812498 -0.056722146 0.02409475
-0.08287179 0.032096807 0.039602038 -0.048968144 0.038864117 0.10357032 -0.06681002 0.061661478
0.063833304 -0.074875236 0.017775418 0.0077804616 0.061010383 -0.03453342 -0.057018094 0.027397715
0.02271202 0.024277143 -0.116006896 -0.03115904 -0.05474482 -0.06874897 0.037790973 -0.0006245966
-0.07054486 -0.07920763 0.01335006 -0.046670616 -0.07385411 -0.0020549095 0.054362636 0.01817149
-0.04991792 -0.047484767 -0.07403919 -0.09021038 -0.022005888 0.07012228 -0.031292044 0.031214682
00000000: 2e68 62bd a6e9 ebbd e578 eabd ffbc b43d
00000010: b613 29bd 6654 083d bce3 54bd e898 933d
00000020: abd9 08bd 58c9 a1bd d120 483d da8b b9bc
00000030: c49e 483d dfd9 d2bd 9827 b03c b683 4a3d
00000040: eb4c 003d f76b a7bd 761f 2dbd 9e2e a5bd
00000050: 12dd 3abc 4c66 a6bd 7b55 68bd 5a62 c53c
00000060: afb8 a9bd f177 033d bf35 223d d292 48bd
00000070: fb2f 1f3d ad1c d43d b1d3 88bd bf90 7c3d
00000080: 09bb 823d 3058 99bd c19d 913c 3ef3 fe3b
00000090: 06e6 793d ea72 0dbd ce8b 69bd 2c71 e03c
000000a0: 8f0e ba3c dce0 c63c 0695 edbd 3e41 ffbc
000000b0: 1b3c 60bd 43cc 8cbd b5ca 1a3d f8bb 23ba
000000c0: d379 90bd 9c37 a2bd 36ba 5a3c b029 3fbd
000000d0: d340 97bd a9ab 06bb 5bab 5e3d 60dc 943c
000000e0: bc76 4cbd 637f 42bd dca1 97bd 38c0 b8bd
000000f0: b145 b4bc 459c 8f3d 162c 00bd efb5 ff3c

lstm.weight_ih_l0 f4 [512, 64]
0.087473534 0.027432231 0.08894294 0.15337399 -0.04898237 -0.083154544 0.1397956 0.044985652
-0.055084184 -0.021344302 0.11698805 0.23858689 0.060811553 -0.012901842 0.20347838 0.08979694
0.1471999 0.1508902 -0.0064176223 0.0045400974 0.14230601 -0.12186207 0.16413547 0.0400536
0.12510158 0.13996285 0.046860382 0.083651 -0.17225052 0.11114838 0.23567043 -0.026700953
0.27034035 0.080884114 0.088959396 -0.11415489 0.073789455 0.13559325 0.0003051203 0.053864315
-0.10269815 0.17841987 -0.03866501 0.026753515 0.12944312 -0.06622143 0.11598532 0.00056562136
0.11458579 0.10613847 -0.06501653 0.096193455 0.017153062 -0.028451305 0.18977784 -0.0196195
0.040993977 -0.124778755 -0.027686344 -0.004731216 -0.016420826 -9.252106e-05 -0.113357835 0.015920924
0.08932754 0.06371945 0.086401835 0.041421123 0.007910024 -0.14199392 0.13363633 0.09147835
0.035729874 0.089155525 -0.020249002 0.17869943 -0.0367721 0.10429298 0.013142804 0.015547711
0.0046650707 0.18035473 0.0018599469 0.0743917 0.15325484 -0.04668964 0.19991359 0.05662301
0.102724805 0.2239746 -0.049270637 -0.0070587914 -0.006516235 0.21585223 0.2344465 -0.098274134
0.14836273 0.14688383 0.043409865 0.07016307 0.022194486 0.16069466 0.049446557 0.096828856
0.036129728 0.22151461 0.036844444 -0.06567177 0.03884708 -0.01134005 0.18625604 0.008001574
0.1483939 0.14132522 -0.044714533 0.061987966 0.22670172 0.07408274 0.009339547 0.12525594
-0.025109084 -0.16818582 -0.017702281 0.16753921 0.015031961 -0.014067187 0.08270301 0.15240008
0.05069103 -0.101348095 0.0075313468 0.00057731644 0.13529028 -0.10313499 0.031954877 0.055882018
-0.15312856 -0.12908676 0.0005586726 0.17501774 0.07640235 0.1040785 -0.07623668 0.023351533
0.006504357 0.10784275 0.016155463 -0.0911759 -0.1577671 0.024838936 0.22118899 0.062002376
0.050308667 0.19193909 0.032882407 0.03846742 -0.15154733 0.25097123 0.26678884 -0.031111225
0.04003262 0.14070769 0.07641634 0.25327346 0.025051335 0.24088947 0.049799934 -0.0379248
-0.014648976 0.17777501 0.028660052 -0.103066444 0.2240806 0.055106733 0.04670121 -0.047282
0.13995661 -0.04214447 -0.027942194 0.04791979 0.071803756 0.034380283 0.32512283 -0.009467484
0.015046112 -0.07065876 0.02638325 -0.23678339 0.023968404 -0.10050164 -0.11293914 0.06895289
-0.005193273 0.037158065 0.09893016 0.0055669853 0.10862843 -0.09615937 0.21601449 -0.015830457
0.07098226 -0.18900827 0.043015752 0.060342263 -0.044244852 0.016338555 0.087879084 0.105556116
0.023522846 0.15772235 0.10013297 0.014498596 0.12856342 -0.06029244 0.23044077 0.029118786
0.09222136 0.13843708 -0.036619335 -0.0018361413 -0.091642566 0.123318814 0.23350778 0.015670925
0.1762223 0.04478109 -0.11831165 -0.04286026 -0.025648165 0.24703968 -0.22642419 0.07194567
-0.04990498 0.022472078 -0.0076138037 -0.06159998 -9.877018e-05 -0.10602218 0.07089945 0.058573045
0.16235942 0.04620586 -0.0065027047 0.069985956 -0.08367034 0.044888634 0.10704428 0.15353289
0.17919873 -0.18327752 0.01713201 -0.0003304854 -0.10054432 -0.019908736 -0.04014991 0.019889409
00000000: 5325 b33d 8fb9 e03c b727 b63d 120e 1d3e
00000010: bda1 48bd ee4c aabd 9426 0f3e e042 383d
00000020: f49f 61bd 3fda aebc 6e97 ef3d 1f50 743e
00000030: 8915 793d 3f62 53bc a35c 503e 75e7 b73d
00000040: 92bb 163e f682 1a3e eb4a d2bb 19c5 943b
00000050: abb8 113e d292 f9bd 2113 283e 3e0f 243d
00000060: a11a 003e 6c52 0f3e acf0 3f3d 3751 ab3d
00000070: 7162 30be c3a1 e33d 9753 713e f5bb dabc
00000080: 0d6a 8a3e 92a6 a53d 5830 b63d 0aca e9bd
00000090: ed1e 973d f5d8 0a3e 8ef8 9f39 d4a0 5c3d
000000a0: 6853 d2bd b3b3 363e 345f 1ebd 302a db3c
000000b0: bd8c 043e 1a9f 87bd b689 ed3d 3546 143a
000000c0: f4ab ea3d 205f d93d 6327 85bd 1301 c53d
000000d0: 9484 8c3c b612 e9bc 1f55 423e 13b9 a0bc
000000e0: 4de9 273d 018c ffbd 79ce e2bc 5108 9bbb
000000f0: f884 86bc de07 c2b8 2728 e8bd 996c 823c
00000100: 5bf1 b63d 587f 823d 72f3 b03d 32a9 293d
00000110: 0c99 013c db66 11be f6d7 083e 0059 bb3d
00000120: 7d59 123d 2c97 b63d 3ce1 a5bc fcfc 363e
00000130: 579e 16bd 8f97 d53d ea54 573c d4bb 7e3c
00000140: 73dd 983b e9ae 383e 76c9 f33a ad5a 983d
00000150: d6ee 1c3e a33d 3fbd 26b6 4c3e 88ed 673d
00000160: 6261 d23d 9959 653e 02d0 49bd 6f4d e7bb
00000170: 2486 d5bb 5e08 5d3e be12 703e f343 c9bd
00000180: 66ec 173e b768 163e 8bce 313d a8b1 8f3d
00000190: 36d1 b53c 248d 243e 7988 4a3d 354e c63d
000001a0: c4fc 133d bad4 623e 33ea 163d ec7e 86bd
000001b0: 1e1e 1f3d 9ecb 39bc e7b9 3e3e 0919 033c
000001c0: 92f4 173e 8fb7 103e 9626 37bd 18e7 7d3d
000001d0: 7f24 683e b1b8 973d e604 193c 1843 003e
000001e0: 91b1 cdbc e738 2cbe 6004 91bc 668f 2b3e
000001f0: 9d48 763c 0f7a 66bc 3260 a93d c40e 1c3e
00000200: 66a1 4f3d 978f cfbd 84c9 f63b 0d57 173a
00000210: 8989 0a3e 7038 d3bd 1ee3 023d 8be4 643d
00000220: bccd 1cbe 522f 04be e273 123a da37 333e
00000230: d678 9c3d 1c27 d53d fa21 9cbd b74b bf3c
00000240: 8022 d53b a9dc dc3d 7658 843c 6eba babd
00000250: b38d 21be 067b cb3c 5e7f 623e 34f6 7d3d
00000260: 7610 4e3d ae8b 443e b4af 063d 0390 1d3d
00000270: 392f 1bbe 4d7f 803e 8c98 883e f8dc febc
00000280: 3ff9 233d ad15 103e 2c80 9c3d 0fad 813e
00000290: 7538 cd3c bbab 763e 04fb 4b3d 0957 1bbd
000002a0: 4202 70bc a70a 363e 7cc8 ea3c 8014 d3bd
000002b0: 6375 653e 99b7 613d c549 3f3d c5aa 41bd
000002c0: c950 0f3e ae9f 2cbd 07e7 e4bc 8b47 443d
000002d0: d90d 933d 57d2 0c3d 8076 a63e 821d 1bbc
000002e0: f883 763c 8ab5 90bd af21 d83c 5877 72be
000002f0: 6359 c43c ced3 cdbd a34c e7bd 2c37 8d3d
00000300: 552c aabb 0e33 183d e59b ca3d 426b b63b
00000310: 9578 de3d 34ef c4bd e732 5d3e e0ae 81bc
00000320: 265f 913d 628b 41be 4931 303d 7329 773d
00000330: 173a 35bd 6fd8 853c f3f9 b33d ce2d d83d
00000340: fcb2 c03c f881 213e 8412 cd3d 858b 6d3c
00000350: 21a6 033e 35f5 76bd aaf8 6b3e 858a ee3c
00000360: 8dde bc3d 73c2 0d3e 28fe 15bd aeaa f0ba
00000370: 19af bbbd 938e fc3d aa1c 6f3e 5060 803c
00000380: 9e73 343e 606c 373d 614d f2bd 3d8e 2fbd
00000390: 1a1c d2bc f8f7 7c3e bedb 67be 4058 933d
000003a0: 2a69 4cbd 5d17 b83c 377d f9bb 4350 7cbd
000003b0: d622 cfb8 2822 d9bd bb33 913d 4aea 6f3d
000003c0: 8c41 263e 5b42 3d3d a414 d5bb cc54 8f3d
000003d0: 5b5b abbd 25dd 373d 083a db3d ba37 1d3e
000003e0: df7f 373e 1aad 3bbe 6e58 8c3c 0045 adb9
000003f0: 2eea cdbd a517 a3bc 3b74 24bd 1def a23c

lstm.weight_hh_l0 f4 [512, 128]
-0.028696412 0.011289476 0.025481516 -0.19925289 0.1292226 -0.023805035 0.006340639 -0.05292537
0.12467164 -0.032213263 0.23031847 -0.06964941 0.22546339 -0.08263354 -0.058452148 0.049583483
0.085023075 0.011988378 -0.042602766 -0.0030405663 0.13588451 0.0030987237 -0.10132768 -0.09162253
-0.15260145 0.087184355 0.18892497 -0.11539847 -0.19320288 -0.02879752 0.032210812 -0.11108572
0.046276864 -0.10770128 -0.050902195 0.04355589 0.027426846 -0.076476455 0.19029935 -0.052473865
0.017560968 0.0940016 -0.021211883 -0.062903255 0.0050880075 -0.029825203 0.035189323 -0.24695121
-0.19439304 0.1720075 -0.040706765 -0.10592364 0.054185223 0.013794182 0.0048621623 -0.08247366
0.10670104 0.012470661 -0.031030683 -0.08261811 0.0015502675 -0.0146121485 0.035018303 -0.0061492487
0.08731945 0.06453911 -0.09569535 0.024326028 0.22152814 0.0276958 0.14071685 0.027969655
-0.025810929 -0.00071415305 -0.2112341 0.09216628 -0.039157033 -0.025560306 -0.07711826 -0.020091696
-0.047186363 0.059946377 -0.041158937 0.08164055 -0.020761114 -0.04337804 -0.035241205 0.026930463
0.13602526 0.06861577 0.07776773 0.08832473 -0.2245652 0.10894476 0.2256462 0.0747113
-0.10400603 0.12635534 -0.06328235 0.25049135 -0.0013285781 0.13938215 -0.02658151 -0.100418866
0.04107257 -0.13593715 0.042483475 0.029610075 -0.09128341 -0.07493407 -0.09967974 0.14741854
-0.018741285 -0.09469727 -0.049957667 -0.018858666 -0.12618992 0.041799888 -0.010517193 -0.0035259982
0.001429247 -0.08525227 -0.016372971 -0.08427217 -0.1253586 0.027072698 0.024262808 0.070637144
0.035089225 0.12965555 -0.101110585 -0.08122972 0.19444585 -0.12282527 -0.063785054 -0.048553545
0.06612569 -0.023728097 0.2006681 -0.067357585 0.283788 -0.07076133 0.018872987 -0.007029033
0.01657413 -0.06792724 -0.0077712047 -0.083753966 0.14908127 -0.14784205 -0.06922121 -0.10292167
-0.08846761 -0.026106786 0.13918108 -0.1296101 -0.13894139 0.08380214 -0.010422367 -0.012176529
-0.012993349 -0.018857552 0.055502366 -0.023132225 0.12136077 -0.039373085 0.18006194 0.009450742
-0.02144869 0.11415413 -0.042546086 -0.1327995 -0.06745305 0.05286997 0.08128743 -0.29597577
-0.05903807 0.14318393 0.077184945 -0.09414376 -0.07923761 0.029754726 0.08433049 -0.113491304
-0.009944916 0.06561522 -0.100634195 -0.076847054 0.05042858 -0.076537006 0.06845976 -0.15936373
-0.01968409 -0.030478058 -0.09331811 0.06266844 0.16319105 0.16436039 0.08016396 -0.019178124
-0.106722094 0.05296121 -0.2396197 0.016355056 -0.056069855 -0.101612814 0.08657077 0.07831522
-0.12058273 0.04396746 0.02715447 0.01193016 -0.22754896 -0.09551128 0.080050446 0.0327448
0.046210602 0.081295654 -0.021107834 0.08112621 -0.14473815 0.1631755 0.082249455 -0.012898744
-0.03810979 0.037229326 -0.05688925 0.11806649 -0.0046638004 0.10454436 0.06571707 -0.15138908
-0.046541143 -0.034425464 -0.024225432 0.058129415 -0.032103103 0.07969541 -0.026140362 0.03792867
0.015953422 -0.13469835 -0.010467738 -0.032258417 -0.0060136477 0.012746405 -0.11236837 -0.013554737
0.08273159 0.070792794 0.057070598 -0.05895876 -0.08054637 0.0754894 0.040276553 0.088078186
00000000: bd14 ebbc 7ff7 383c 9dbe d03c f308 4cbe
00000010: ee52 043e c702 c3bc 23c5 cf3b 46c8 58bd
00000020: d853 ff3d 0ef2 03bd 9bd8 6b3e 5aa4 8ebd
00000030: e0df 663e c63b a9bd 856b 6fbd 0d18 4b3d
00000040: 9420 ae3d e76a 443c 3d80 2ebd 3d44 47bb
00000050: 4f25 0b3e f513 4b3b e384 cfbd 98a4 bbbd
00000060: 8e43 1cbe b68d b23d 8c75 413e 0856 ecbd
00000070: fad6 45be c7e8 ebbc 7cef 033d e980 e3bd
00000080: cf8c 3d3d 7d92 dcbd d27e 50bd a967 323d
00000090: 44ae e03c b09f 9cbd d5dd 423e d6ee 56bd
000000a0: 05dc 8f3c e983 c03d 8bc4 adbc 6cd3 80bd
000000b0: 4db9 a63b fc53 f4bc ae22 103d c7e0 7cbe
000000c0: f80e 47be bc22 303e 23bc 26bd 7eee d8bd
000000d0: 53f1 5d3d fe00 623c c652 9f3b f3e7 a8bd
000000e0: 1386 da3d be51 4c3c 0f34 febc af33 a9bd
000000f0: 5832 cb3a cb67 6fbc 5a6f 0f3d a37f c9bb
00000100: 8ad4 b23d 152d 843d ecfb c3bd 6147 c73c
00000110: 46d8 623e 4de2 e23c 1418 103e 9e20 e53c
00000120: 7171 d3bc 0036 3bba c04d 58be adc1 bc3d
00000130: 2063 20bd d963 d1bc 2ef0 9dbd 5797 a4bc
00000140: 7d46 41bd 558a 753d 4696 28bd 2933 a73d
00000150: 3613 aabc 2cad 31bd 1559 10bd 469d dc3c
00000160: 354a 0b3e 6d86 8c3d b044 9f3d 99e3 b43d
00000170: 6bf4 65be 6e1e df3d cc0f 673e 3d02 993d
00000180: 1d01 d5bd 4b63 013e 2d9a 81bd 6740 803e
00000190: af23 aeba 32ba 0e3e 78c1 d9bc 68a8 cdbd
000001a0: b63b 283d 1c33 0bbe 2703 2e3d d490 f23c
000001b0: ccf2 babd 0977 99bd e424 ccbd e3f4 163e
000001c0: 5387 99bc a4f0 c1bd 69a0 4cbd 7d7d 9abc
000001d0: ee37 01be 5c36 2b3d 4e50 2cbc 6f14 67bb
000001e0: 9255 bb3a be98 aebd 9c20 86bc e396 acbd
000001f0: 015e 00be 90c7 dd3c ccc2 c63c 35aa 903d
00000200: b8b9 0f3d 6dc4 043e 1113 cfbd c45b a6bd
00000210: d01c 473e d18b fbbd bda1 82bd 15e0 46bd
00000220: e86c 873d 6d61 c2bc f07b 4d3e c6f2 89bd
00000230: a94c 913e 51eb 90bd 869b 9a3c cd53 e6bb
00000240: 78c6 873c 701d 8bbd 97a5 febb 3387 abbd
00000250: c3a8 183e e863 17be dac3 8dbd 99c8 d2bd
00000260: 822e b5bd e6dd d5bc 7c85 0e3e 83b8 04be
00000270: a746 0ebe 75a0 ab3d 93c2 2abc 1080 47bc
00000280: 0ee2 54bc 277b 9abc 7356 633d cb7f bdbc
00000290: ff8b f83d ac45 21bd 2862 383e 49d7 1a3c
000002a0: 2ab5 afbc a4c9 e93d ce44 2ebd 98fc 07be
000002b0: d324 8abd 2f8e 583d 067a a63d 238a 97be
000002c0: e7d1 71bd cf9e 123e 2413 9e3d 72ce c0bd
000002d0: 5447 a2bd 2fc0 f33c 77b5 ac3d 216e e8bd
000002e0: 00f0 22bc 4661 863d 4d19 cebd fd61 9dbd
000002f0: 338e 4e3d 6fbf 9cbd a134 8c3d 3f30 23be
00000300: 8740 a1bc 1fad f9bc 911d bfbd 5058 803d
00000310: 8e1b 273e 174e 283e 012d a43d 711b 9dbc
00000320: 1d91 dabd dbed 583d de5e 75be 0afb 853c
00000330: 81a9 65bd 611a d0bd 044c b13d bb63 a03d
00000340: 14f4 f6bd 3917 343d 0d73 de3c b876 433c
00000350: 9802 69be 6b9b c3bd 7df1 a33d 691f 063d
00000360: 5447 3d3d 567e a63d 56ea acbc 8025 a63d
00000370: 3d36 14be 7a17 273e 6772 a83d 4155 53bc
00000380: 0319 1cbd c77d 183d b404 69bd d8cc f13d
00000390: cbd2 98bb 5a1b d63d ac96 863d bd05 1bbe
000003a0: eda1 3ebd b701 0dbd 6a74 c6bc 1c19 6e3d
000003b0: 8b7e 03bd 5937 a33d 5024 d6bc 185b 1b3d
000003c0: c0b0 823c 5dee 09be e080 2bbc 6721 04bd
000003d0: 220e c5bb 4cd6 503c 6321 e6bd b014 5ebc
000003e0: 2e6f a93d d0fb 903d dcc2 693d be7e 71bd
000003f0: 7ff5 a4bd 309a 9a3d 07f9 243d 5662 b43d

lstm.bias_ih_l0 f4 [512]
0.03945591 -0.031011788 0.08958945 0.038401384 0.008626682 -0.0026628382 -0.11799246 -0.08216135
0.08483525 0.053193264 -0.010556856 0.06632932 0.12669271 0.14820395 -0.088203356 -0.07762176
0.04178568 0.023253134 -0.07871772 0.017511649 -0.07467904 0.085729375 -0.05549177 0.050598256
-0.08071702 0.16576132 0.039290044 -0.1027918 -0.039456315 0.027433334 -0.09405278 0.051317617
0.15262373 0.021717966 -0.039383255 0.0025739076 0.009089574 -0.015704012 0.11517023 -0.1646699
-0.114133686 -0.019949645 -0.13542435 0.005081115 -0.032819167 -0.0049065906 0.069045305 0.04494748
0.048411973 -0.0016121357 -0.049836945 -0.038125645 -0.11609187 0.0012592254 0.053708307 -0.066009365
0.027997065 0.056436203 -0.13298698 -0.03880662 -0.008678302 -0.050927605 -0.0778141 0.03774302
0.011958205 0.089720316 -0.014536906 -0.16875017 -0.026497995 -0.072550334 0.07809538 0.07891323
0.027539121 0.00633551 0.046890706 0.010985134 0.024857668 0.012240864 -0.16242427 0.13357449
0.09916066 -0.049142078 0.09521364 -0.052582145 -0.043042235 0.06309724 -0.2180819 0.031559393
-0.057271153 0.14880198 0.069377586 0.00027605798 -0.010876789 -0.022875441 -0.055325598 0.1492889
0.055323973 -0.027557937 0.05650798 0.0051633003 -0.053359073 0.051054712 -0.030838268 0.02731156
0.025327511 0.024519984 0.04428702 -0.022464022 -0.067401394 0.13768364 0.14080444 -0.118901774
0.059025567 -0.090622395 0.067677036 -0.0038204747 0.08478526 0.11470822 0.10231558 0.063429184
-0.059037715 -0.032174945 -0.038263462 -0.11667718 -0.0071921176 -0.003328773 0.069229126 0.09218171
0.060411688 0.09526408 -0.0013596764 0.06831344 0.07682766 -0.090002924 -0.092641234 -0.010647713
0.0019462868 -0.070297405 0.081605695 -0.07829308 0.054121636 0.1294352 -0.023508547 0.0042162677
0.045952097 -0.031926136 -0.10078184 0.07810877 -0.025492696 -0.0047097704 -0.01504052 -0.015382135
-0.034192793 0.11205485 -0.06685495 -0.09996513 -0.09056599 0.039070506 0.021242747 -0.0021947606
0.1885454 0.107408635 0.046353824 -0.058066756 -0.0002856589 0.043733757 -0.006934027 -0.0238573
-0.006862318 0.024266157 -0.07408094 -0.07384286 0.02385615 0.07713075 -0.009750217 -0.045643657
0.0030373721 -0.073508784 0.039476205 -0.05105155 -0.0885965 0.047318764 -0.0582307 -0.010205001
-0.029927822 0.04704207 -0.07829616 0.01673031 -0.108898364 -0.005788869 -0.05568389 0.0776149
0.10036575 0.009914129 0.09150242 -0.077164315 0.010252654 0.025060583 0.079267226 -0.05000816
0.07839251 0.06780814 0.07017414 0.020577425 0.07116332 0.024884801 -0.07913183 0.012803439
0.028436357 -0.08840159 0.020599566 0.02067065 -0.147538 -0.009245384 -0.16602775 0.04069806
0.012017837 0.12982552 0.04503185 0.006626507 0.025549397 -0.009348141 -0.07620797 0.027186524
-0.030293541 0.031403534 0.04291489 0.11480721 0.02911055 0.052316256 0.014728842 0.0145501895
-0.018185643 -0.052952 0.030425588 0.016959896 -0.003419165 0.08487617 0.08527404 -0.010493615
0.006057536 -0.12523413 0.047782507 0.01985038 0.040664684 0.13892087 0.03935862 -0.04851516
0.052007046 -0.002486408 -0.05244093 -0.07951511 0.10103641 0.09154774 -0.008413057 0.12780346
00000000: 859c 213d 6f0c febc ac7a b73d c54a 1d3d
00000010: ed56 0d3c 0383 2ebb 08a6 f1bd 3644 a8bd
00000020: 1bbe ad3d 2ee1 593d aaf6 2cbc abd7 873d
00000030: bcbb 013e c7c2 173e f6a3 b4bd 28f8 9ebd
00000040: 7627 2b3d 5b7d be3c c236 a1bd 9774 8f3c
00000050: 53f1 98bd e292 af3d 574b 63bd 1e40 4f3d
00000060: f74e a5bd 56bd 293e 99ee 203d 8284 d2bd
00000070: f29c 21bd dfbb e03c be9e c0bd 6c32 523d
00000080: 6549 1c3e e0e9 b13c 5650 21bd 01af 283b
00000090: 70ec 143c b3a5 80bc 5fde eb3d 3a9f 28be
000000a0: ecbe e9bd 706d a3bc aeac 0abe 7b7f a63b
000000b0: 646d 06bd 77c7 a0bb a067 8d3d d91a 383d
000000c0: a24b 463d 4c4e d3ba d321 4cbd a329 1cbd
000000d0: 93c1 edbd 980c a53a 3efd 5b3d eb2f 87bd
000000e0: 1a5a e53c a629 673d bd2d 08be b1f3 1ebd
000000f0: 702f 0ebc 7799 50bd 005d 9fbd 6d98 1a3d
00000100: 59ec 433c 49bf b73d 342c 6ebc d8cc 2cbe
00000110: 5312 d9bc 4595 94bd 78f0 9f3d 429d a13d
00000120: b999 e13c 1c9a cf3b 7810 403d fefa 333c
00000130: 4fa2 cb3c e88d 483c 8c52 26be c0c7 083e
00000140: be14 cb3d 3449 49bd 5eff c23d 6060 57bd
00000150: 0e4d 30bd 2039 813d dd50 5fbe 6c44 013d
00000160: 2895 6abd 8c5f 183e d615 8e3d e0bb 9039
00000170: 8f34 32bc 4765 bbbc 189d 62bd 30df 183e
00000180: 649b 623d 2fc1 e1bc e974 673d e730 a93b
00000190: 0b8f 5abd bf1e 513d 89a0 fcbc 7ebc df3c
000001a0: a47b cf3c 22de c83c 4e66 353d 7806 b8bc
000001b0: be09 8abd f1fc 0c3e 0a2f 103e c682 f3bd
000001c0: cbc4 713d 3c98 b9bd 429a 8a3d ee60 7abb
000001d0: e5a3 ad3d 25ec ea3d d58a d13d 29e7 813d
000001e0: 88d1 71bd e0c9 03bd 26ba 1cbd 72f4 eebd
000001f0: dbab ebbb 8b27 5abb 00c8 8d3d c4c9 bc3d
00000200: 3f72 773d d019 c33d 2b37 b2ba ebe7 8b3d
00000210: d257 9d3d 7453 b8bd b0ba bdbd bf73 2ebc
00000220: 8c1a ff3a 16f8 8fbd e320 a73d 1f58 a0bd
00000230: a6ae 5d3d a98a 043e ff94 c0bc 9e28 8a3b
00000240: 4438 3c3d fbc4 02bd b666 cebd 7ef7 9f3d
00000250: 0fd6 d0bc 6b54 9abb 836c 76bc 5a05 7cbc
00000260: be0d 0cbd 037d e53d 3feb 88bd 85ba ccbd
00000270: a97a b9bd 6508 203d 4505 ae3c f9d5 0fbb
00000280: 0c12 413e 0ff9 db3d 82dd 3d3d 68d7 6dbd
00000290: 7dc4 95b9 2b22 333d d636 e3bb 6270 c3bc
000002a0: 4cdd e0bb d2c9 c63c bfb7 97bd ed3a 97bd
000002b0: f96d c33c baf6 9d3d 60bf 1fbc d8f4 3abd
000002c0: a60e 473b c68b 96bd cdb1 213d 6e1b 51bd
000002d0: 1572 b5bd 52d1 413d 5183 6ebd e032 27bc
000002e0: 312b f5bc 30af 403d bd59 a0bd 010e 893c
000002f0: 1b06 dfbd 8eb0 bdbb ca14 64bd 90f4 9e3d
00000300: 8f8c cd3d df6e 223c 9f65 bb3d 5308 9ebd
00000310: bffa 273c da4b cd3c db56 a23d 5bd5 4cbd
00000320: 418c a03d fede 8a3d 76b7 8f3d fd91 a83c
00000330: 13be 913d 36db cb3c de0f a2bd 84c5 513c
00000340: 5df3 e83c e50b b5bd 6cc0 a83c 7f55 a93c
00000350: 3414 17be f379 17bc 2e03 2abe 02b3 263d
00000360: 76e6 443c fbf0 043e 5173 383d 2b23 d93b
00000370: f84c d13c f228 19bc ed12 9cbd 46b6 de3c
00000380: 292a f8bc fea0 003d 86c7 2f3d 0b20 eb3d
00000390: 4079 ee3c 9249 563d 3e51 713c eb63 6e3c
000003a0: 0ffa 94bc 32e4 58bd 153f f93c 7bef 8a3c
000003b0: 1214 60bb 8fd3 ad3d 28a4 ae3d 69ed 2bbc
000003c0: 4c7e c63b 603d 00be 97b7 433d 449d a23c
000003d0: 0390 263d 4641 0e3e 8136 213d d5b7 46bd
000003e0: 5705 553d 01f3 22bb 4dcc 56bd d1d8 a2bd
000003f0: 2dec ce3d 627d bb3d ebd6 09bc e9de 023e

lstm.bias_hh_l0 f4 [512]
0.07208282 0.12104729 0.08705352 0.06511514 0.119532466 0.0048149293 -0.06280972 -0.010602772
0.040275645 -0.013354559 0.086806856 -0.042005565 0.0073261205 0.11994114 0.0045606988 -0.0438395
-0.006799187 0.009353591 -0.15191388 -0.028210213 -0.089195155 -0.05631383 -0.06158969 0.15642351
-0.062983446 0.026245827 0.03739808 -0.060854312 -0.04085815 0.06425496 0.02120102 -0.046110578
0.12388449 0.0836166 0.01778357 0.041503187 -0.04503492 -0.04017519 -0.029824005 -0.03307278
-0.10659936 0.10640854 -0.08775053 -0.03273673 0.026217926 0.08616808 -0.009686243 0.10588145
-0.08770012 -0.08579196 0.06422553 -0.09355485 -0.009931944 -0.048403278 -0.06911595 0.07379996
-0.025021456 -0.05029071 -0.019936131 -0.042842697 -0.05774649 0.041533116 -0.121900626 0.08903236
0.023934782 0.084682316 -0.024116516 -0.18703479 -0.06449528 0.011110453 -0.018896295 0.06274387
-0.051721714 0.05017278 -0.054117404 0.0049730274 0.03018599 0.055379957 -0.092786685 0.0049708537
-0.010187619 0.037465297 -0.030709026 0.10719162 0.02036712 -0.021180533 -0.15066902 0.037789177
-0.11370296 0.1151956 -0.0883345 0.005792298 0.005893396 0.12113086 -0.04385643 0.051467888
-0.08737967 0.08033979 0.002991568 0.11603476 0.06829128 -0.015399054 0.035511117 0.08926403
-0.07296863 -0.028735034 -0.08002743 0.009337257 -0.0023284908 0.02374757 0.11051936 -0.118152685
0.0844508 -0.17076786 0.099792436 0.16782941 0.015751498 0.0016063673 0.048056696 0.04899113
0.015908381 -0.06756176 0.04351429 -0.19462058 0.045408417 0.059234254 0.038585834 0.03302669
0.1377933 0.09358217 0.038120635 -0.039243687 0.0037330932 -0.056648944 -0.19060068 0.012104818
-0.055316962 -0.0291874 -0.05007529 -0.062938 0.17739828 0.05915598 -0.00894484 0.004559397
-0.010910888 -0.00923043 -0.12811896 -0.04979609 -0.031644177 -0.071337394 0.004602547 -0.001265034
-0.13667586 0.11284185 0.008253404 -0.09090536 -0.1266684 -0.012213708 -0.016895384 0.036678027
0.18831223 0.092909925 -0.10197814 0.08898771 -0.12528549 -0.0045067957 0.09175243 -0.020556867
0.005906331 0.07656534 -0.059716705 -0.04871365 -0.0005319199 -0.061659303 -0.004188606 0.007345621
-0.010911896 -0.15502957 -0.05462746 -0.026947439 -0.14702335 0.07362906 -0.019965025 0.012277955
-0.0032790727 -0.0291727 -0.08788603 0.046347514 -0.13470057 -0.040102642 0.019173684 0.057057705
-0.02564454 0.12450177 0.06961589 -0.12999937 -0.05353609 -0.014239726 0.05428904 0.016296705
-0.07972417 0.070327 0.0049987664 0.066647515 -0.026295675 0.018244766 -0.08847644 -0.031725574
-0.009743068 -0.10215696 -0.039076857 0.084721394 -0.009958231 0.06900471 -0.15400729 0.11747693
-0.1350595 0.012975383 0.083317526 -0.015555395 -0.025172383 0.07553841 -0.07249189 0.032220867
-0.07168954 -0.051833168 -0.063337475 -0.01816016 -0.040570185 0.06446902 0.07341594 0.033417515
0.033607945 -0.059222855 0.029990664 0.053968333 -0.05261744 0.118907444 0.0593065 -0.10324021
-0.07655327 -0.04360578 0.08661409 0.16981085 -0.06845424 0.14817852 0.0043809786 -0.09270501
0.0006095739 -0.079661995 -0.0730975 -0.0462125 0.025860371 -0.024900937 0.09725329 -0.012594788
00000000: 28a0 933d a4e7 f73d 1e49 b23d 165b 853d
00000010: 70cd f43d 8ec6 9d3b 62a2 80bd 40b7 2dbc
00000020: 13f8 243d 15cd 5abc cbc7 b13d 070e 2cbd
00000030: f40f f03b b3a3 f53d ea71 953b 0c91 33bd
00000040: b7cb debb ce3f 193c 508f 1bbe 1b19 e7bc
00000050: f3ab b6bd 55a9 66bd 7945 7cbd 7c2d 203e
00000060: 77fd 80bd 7d01 d73c bb2e 193d 5f42 79bd
00000070: e05a 27bd 1b98 833d c3ad ad3c 72de 3cbd
00000080: 27b7 fd3d 2e3f ab3d d9ae 913c 3fff 293d
00000090: 8976 38bd bd8e 24bd 7951 f4bc 5377 07bd
000000a0: c450 dabd b8ec d93d 8db6 b3bd f316 06bd
000000b0: fac6 d63c e478 b03d 0cb3 1ebc 60d8 d83d
000000c0: 1f9c b3bd b2b3 afbd ad88 833d af99 bfbd
000000d0: 98b9 22bc 8442 46bd aa8c 8dbd 6f24 973d
000000e0: ccf9 ccbc a2fd 4dbd 1951 a3bc d37b 2fbd
000000f0: 9587 6cbd a11e 2a3d 09a7 f9bd 9956 b63d
00000100: e012 c43c ec6d ad3d 0090 c5bc 0c86 3fbe
00000110: 1a16 84bd 9e08 363c 67cc 9abc dc7f 803d
00000120: 26da 53bd f981 4d3d 36aa 5dbd c7f4 a23b
00000130: 9c48 f73c 18d6 623d f206 bebd 8be2 a23b
00000140: f9e9 26bc 3675 193d 7f91 fbbc 4887 db3d
00000150: f2d8 a63c cc82 adbc fb48 1abe d3c8 1a3d
00000160: 19dd e8bd aceb eb3d b8e8 b4bd 51cd bd3b
00000170: 641d c13b 7513 f83d cda2 33bd fecf 523d
00000180: 1df4 b2bd 3089 a43d 2f0e 443b a2a3 ed3d
00000190: 4cdc 8b3d 504c 7cbc 1b74 113d 0fd0 b63d
000001a0: 9470 95bd bc65 ebbc 6ce5 a3bd 4bfb 183c
000001b0: 9899 18bb 448a c23c f957 e23d 09fa f1bd
000001c0: 8bf4 ac3d c5dd 2ebe fa5f cc3d 79db 2b3e
000001d0: 4909 813c be8c d23a 19d7 443d ecaa 483d
000001e0: 4b52 823c d25d 8abd 0a3c 323d 9e4a 47be
000001f0: 2dfe 393d 9e9f 723d 2e0c 1e3d ff46 073d
00000200: b019 0d3e 02a8 bf3d 6224 1c3d fdbd 20bd
00000210: e9a6 743b b908 68bd d32c 43be 4953 463c
00000220: 0a94 62bd 6a1a efbc bf1b 4dbd a3e5 80bd
00000230: e5a7 353e 8a4d 723d 618d 12bc ff66 953b
00000240: 95c3 32bc 3b3b 17bc 9e31 03be fcf6 4bbd
00000250: 539d 01bd 5719 92bd f6d0 963b 7fcf a5ba
00000260: c2f4 0bbe a119 e73d 4939 073c 972c babd
00000270: 5cb5 01be 011c 48bc 3068 8abc b33b 163d
00000280: ecd4 403e 8f47 be3d ead9 d0bd 303f b63d
00000290: d74a 00be bead 93bb b3e8 bb3d e066 a8bc
000002a0: e589 c13b 4ace 9c3d 8199 74bd f787 47bd
000002b0: 8a70 0bba 778e 7cbd 9340 89bb 89b3 f03b
000002c0: cfc7 32bc 12c0 1ebe 0bc1 5fbd e0c0 dcbc
000002d0: 4a8d 16be d5ca 963d b18d a3bc 7a29 493c
000002e0: b6e5 56bb 96fb eebc 97fd b3bd e4d6 3d3d
000002f0: f2ee 09be ab42 24bd 2112 9d3c 57b5 693d
00000300: 8014 d2bc c9fa fe3d c792 8e3d 8e1e 05be
00000310: a948 5bbd bd4d 69bc 2f5e 5e3d ab80 853c
00000320: 6d46 a3bd 9a07 903d b1cc a33b 7e7e 883d
00000330: 076a d7bc 0c76 953c 2333 b5bd adf2 01bd
00000340: 64a1 1fbc ab37 d1bd 0e0f 20bd 6982 ad3d
00000350: d927 23bc 5752 8d3d 16b4 1dbe bf97 f03d
00000360: 0a4d 0abe b396 543c 61a2 aa3d 0edc 7ebc
00000370: 5036 cebc e2b3 9a3d a176 94bd 07fa 033d
00000380: f7d1 92bd 044f 54bd 14b7 81bd 9ec4 94bc
00000390: ec2c 26bd 5508 843d 195b 963d cee0 083d
000003a0: 7ca8 093d aa93 72bd fbae f53c e60d 5d3d
000003b0: 6285 57bd bf85 f33d 5feb 723d 9a6f d3bd
000003c0: f6c7 9cbd f99b 32bd ba62 b13d e5e2 2d3e
000003d0: bd31 8cbd 1cbc 173e 508e 8f3b 20dc bdbd
000003e0: d0cb 1f3a d425 a3bd 24b4 95bd 5249 3dbd
000003f0: 21d9 d33c 0dfd cbbc bc2c c73d 5f5a 4ebc

lstm.weight_ih_l0_reverse f4 [512, 64]
0.15145501 0.0040693586 0.103295766 0.14686492 0.2367015 0.110303484 -0.013168433 0.049995594
0.0785541 0.14631918 -0.033079084 -0.104578115 0.15223351 -0.0064882804 0.15226509 -0.11912002
0.035176918 -0.044700585 0.041336834 0.20739421 -0.046211194 0.012383708 0.12780821 0.015179162
-0.007227686 0.20456211 -0.08706641 0.3162862 -0.003619654 -0.16464168 0.13702968 -0.02580824
-0.16787413 0.08053718 0.0012764588 0.09164533 -0.114681125 0.1096524 0.29322952 0.34402344
-0.10506771 -0.3330196 0.07092584 -0.18122293 0.0041696485 -0.002927389 0.06274935 -0.066677764
0.13734847 0.0037064296 0.06793296 -0.09129779 0.13400005 0.23342632 0.166733 0.045484547
-0.025567295 -0.14289215 0.038337253 0.23482874 0.104570374 -0.0011451752 -0.11886455 0.044819903
0.11410555 0.07896317 0.17290482 -0.038616296 0.0005667814 0.111911446 0.0826813 0.041034974
-0.11371052 -0.06567262 -0.12100822 -0.121826455 0.013233817 0.15401685 0.044544432 -0.075057745
0.2352329 0.11615911 -0.06535205 0.035199743 -0.05809565 -0.026983062 0.23850308 -0.1733643
0.1847391 0.1466812 -0.24171214 0.05016491 0.06490554 -0.17015372 0.063963234 -0.0409429
-0.08811704 0.11170749 -0.17833313 -0.05516049 0.10891062 0.072381705 -0.0017646302 0.016452827
-0.10553489 -0.15566084 0.05805062 0.026221592 0.013828289 0.012944328 0.12248215 -0.25323993
0.10666647 -0.08313894 -0.021802729 -0.05447956 0.06509755 0.040351424 0.21493065 -0.03899727
-0.0697498 -0.183971 0.021183515 -0.044022474 0.12382887 -0.16285391 0.062143423 -0.06936783
0.06925315 -0.047521055 0.047513384 0.020122876 0.046309054 0.08228759 -0.11877873 0.12537946
-0.016265765 -0.032753482 -0.002390818 -0.11713779 0.17277867 0.17843562 0.07397103 -0.19288051
0.1905434 0.211025 0.0899012 0.2051884 -0.017454466 -0.00316298 0.17851403 0.0077346703
-0.084397234 0.29762512 -0.1671298 0.22782436 -0.013162347 0.010295924 0.22331667 0.06934765
0.0044623697 0.036735468 -0.14233315 0.0069718487 -0.014512333 0.29511064 0.18705384 0.10178952
-0.0702381 0.10818009 0.1425444 0.012265154 0.05286984 -0.06623825 0.05016969 -0.031337254
0.027032202 -0.038189273 0.10950381 0.075372726 0.11727682 0.11664482 0.21435466 0.124016225
-0.0793431 -0.15102863 0.014837667 -0.045554727 0.12048418 -0.07329007 -0.1776264 0.11536333
0.00032559742 -0.0900391 0.123948455 -0.053758677 0.14878404 0.10362165 0.040122315 -0.006759841
-0.12221735 -0.05542656 0.06744077 -0.03915211 0.19653764 0.19472222 0.033530254 -0.043638907
0.07497241 0.06343945 -0.012157015 0.1005532 -0.09123664 -0.020195082 0.17034642 0.0115785245
0.051573854 0.11671963 -0.03882491 0.031761568 0.041787952 -0.010492757 0.11905947 -0.04050916
-0.036562793 0.05984082 0.008504889 -0.11520013 0.08884676 0.17029409 0.09098529 -0.059275247
0.039720584 -0.03425098 0.0291729 0.10337133 0.09757628 -0.06526528 0.031364355 -0.03909886
0.1176477 -0.08847514 -0.069627576 0.031644147 0.24184097 0.077907115 0.13417567 0.014959145
-0.030873975 0.033358727 -0.04549741 0.10024753 0.1751388 0.04683384 0.062903315 0.127672
00000000: 0617 1b3e 4158 853b bb8c d33d c263 163e
00000010: e161 723e cbe6 e13d 69c0 57bc 2ec8 4c3d
00000020: f9e0 a03d b2d4 153e ef7d 07bd 0d2d d6bd
00000030: 1ae3 1b3e a49b d4bb 61eb 1b3e 32f5 f3bd
00000040: ac15 103d f617 37bd d050 293d 265f 543e
00000050: f347 3dbd 09e5 4a3c 28e0 023e 05b2 783c
00000060: 39d6 ecbb bb78 513e e04f b2bd 44f0 a13e
00000070: b837 6dbb d497 28be 8251 0c3e cd6b d3bc
00000080: 32e7 2bbe adf0 a43d da4e a73a 8cb0 bb3d
00000090: f0dd eabd 7091 e03d 2e22 963e d723 b03e
000000a0: bd2d d7bd 8c81 aabe 9141 913d 8192 39be
000000b0: 8ca1 883b 70d9 3fbb bb82 803d 5a8e 88bd
000000c0: 14a5 0c3e 92e7 723b 7020 8b3d 56fa babd
000000d0: 4f37 093e 4f07 6f3e 0ebc 2a3e 014e 3a3d
000000e0: 8172 d1bc 5252 12be 8607 1d3d f276 703e
000000f0: fe28 d63d b419 96ba 426f f3bd 1395 373d
00000100: 2cb0 e93d 71b7 a13d f60d 313e 1f2c 1ebd
00000110: 0e94 143a d431 e53d d054 a93d 4a14 283d
00000120: 10e1 e8bd 5e7f 86bd 28d3 f7bd 2680 f9bd
00000130: a7d2 583c 98b6 1d3e 3974 363d e0b7 99bd
00000140: e5e0 703e d4e4 ed3d 4cd7 85bd 9b2d 103d
00000150: b4f5 6dbd 950b ddbc 273a 743e 6986 31be
00000160: 3f2c 3d3e 9933 163e 6383 77be b879 4d3d
00000170: 32ed 843d c73c 2ebe 28ff 823d beb3 27bd
00000180: b576 b4bd e6c6 e43d f69c 36be f7ef 61bd
00000190: 880c df3d dc3c 943d 2a4b e7ba 14c8 863c
000001a0: ad22 d8bd 8e65 1fbe 7dc6 6d3d aace d63c
000001b0: 0c90 623c 7214 543c ecd7 fa3d aaa8 81be
000001c0: f373 da3d c044 aabd a39b b2bc f625 5fbd
000001d0: dd51 853d 8947 253d c816 5c3e 9abb 1fbd
000001e0: fcd8 8ebd e562 3cbe 0d89 ad3c e950 34bd
000001f0: fe99 fd3d 2dc3 26be 1a8a 7e3d b910 8ebd
00000200: 98d4 8d3d 70a5 42bd 659d 423d bbd8 a43c
00000210: 90ae 3d3d 6586 a83d 4342 f3bd 7963 003e
00000220: c83f 85bc 8428 06bd 45af 1cbb f0e5 efbd
00000230: e4ec 303e d4b7 363e 207e 973d 7882 45be
00000240: cf1d 433e f016 583e 1f1e b83d e81c 523e
00000250: abfc 8ebc 004a 4fbb 62cc 363e 1e73 fd3b
00000260: 75d8 acbd 5262 983e 1324 2bbe ca4a 693e
00000270: e2a6 57bc 3cb0 283c 20ad 643e 2406 8e3d
00000280: 1239 923b ee77 163d c8bf 11be 1b74 e43b
00000290: 23c5 6dbc be18 973e 0b8b 3f3e 0677 d03d
000002a0: fed8 8fbd 868d dd3d 29f7 113e c9f3 483c
000002b0: 0c8e 583d eba7 87bd bc7e 4d3d 7e5b 00bd
000002c0: a372 dd3c 5b6c 1cbd 8943 e03d 045d 9a3d
000002d0: d42e f03d 7be3 ee3d ca7f 5b3e 38fc fd3d
000002e0: a37e a2bd 40a7 1abe b019 733c 9897 3abd
000002f0: 69c0 f63d 1b19 96bd b2e3 35be 9c43 ec3d
00000300: f2b4 aa39 6b66 b8bd b0d8 fd3d 0f32 5cbd
00000310: d85a 183e 9637 d43d 4c57 243d a881 ddbb
00000320: 174d fabd f606 63bd 631e 8a3d f75d 20bd
00000330: 2a41 493e 4365 473e 0557 093d b6be 32bd
00000340: 238b 993d 8bec 813d 372e 47bc d6ee cd3d
00000350: 47da babd 2870 a5bc 4b6f 2e3e dab3 3d3c
00000360: 1b3f 533d b40a ef3d de06 1fbd 6b18 023d
00000370: d829 2b3d d0e9 2bbc 74d5 f33d efec 25bd
00000380: dec2 15bd a61b 753d 1758 0b3c 0cee ebbd
00000390: 4af5 b53d 9361 2e3e 7f56 ba3d 9aca 72bd
000003a0: 0db2 223d c14a 0cbd 01fc ee3c 59b4 d33d
000003b0: 13d6 c73d cea9 85bd e977 003d 2026 20bd
000003c0: 47f1 f03d 7432 b5bd e798 8ebd 4b9d 013d
000003d0: 29a5 773e c48d 9f3d 5965 093e 3417 753c
000003e0: 6beb fcbc 29a3 083d 7e5b 3abd 944e cd3d
000003f0: 9657 333e d7d4 3f3d 74d3 803d 73bc 023e
